src/tudui_0.pth (torch, 588051 bytes, 10 tensors)

weight f4 [32, 3, 5, 5]
0	0x3dc612c3	0.09671547
1	0x3dcdb45b	0.10044166
2	0xbd5b7e3a	-0.053587176
3	0x3a50f352	0.0007970828
4	0xbdd8d71d	-0.105879046
5	0xbd826eab	-0.063687645
6	0xbdc4fcbe	-0.09618519
7	0xbc217257	-0.009853921
8	0xbd18d11d	-0.0373088
9	0xbdaf8f22	-0.08572222
10	0xbd52aebe	-0.05143618
11	0x3b5468b3	0.0032411038
12	0xbd0b92a5	-0.034075398
13	0x3ad0b741	0.0015923755
14	0xbd71344e	-0.058887772
15	0xbd4f90a4	-0.05067505
16	0xbd4c6a3f	-0.04990601
17	0x3c9f5408	0.019449249
18	0xbd50758f	-0.050893363
19	0xbd88e248	-0.06683785
20	0xbdb7ee29	-0.08980972
21	0xbd97b86c	-0.074082226
22	0x3d9a3d39	0.075312085
23	0x3d294e35	0.04133435
24	0xbdd6792a	-0.10472329
25	0x3daef50a	0.08542831
26	0x3c1ddb27	0.0096347695
27	0x3d9ba503	0.07599833
28	0x3db7ac4a	0.089684084
29	0xbdf35c77	-0.11882871
30	0x3d89dfff	0.06732177
31	0xbdc06cb4	-0.093957335
32	0x3dc46833	0.09590187
33	0x3d85fc39	0.06542248
34	0x3ba6c86f	0.0050898115
35	0x3d68e047	0.056854513
36	0xbc18926f	-0.009312256
37	0x3d64647b	0.05575989
38	0x3d537401	0.0516243
39	0xbd94bbe6	-0.07262401
40	0xbd057c3e	-0.03258919
41	0x3d97cbe2	0.074119344
42	0x3caafde5	0.02087302
43	0x3d588b5b	0.052867275
44	0x3d8d5dd5	0.06902663
45	0x3d0c207c	0.034210667
46	0xbd8b011b	-0.0678732
47	0xbdb4d064	-0.0882881
48	0xbda7e5c2	-0.0819812
49	0xbdeceda1	-0.115687616
50	0x3c689b97	0.014197252
51	0xbd0ed104	-0.0348673
52	0xbd994e32	-0.07485618
53	0xbbc4dec3	-0.0060080006
54	0xbdb8bb4d	-0.090201
55	0xbd087d99	-0.033322904
56	0x3c38992c	0.011266988
57	0x3da9cdde	0.08291219
58	0xbde5f99e	-0.11229251
59	0xbce38707	-0.027774347
60	0x3de25034	0.11050454
61	0x3d2f4e37	0.0427992
62	0xbd954c4d	-0.07289944
63	0xbba8983d	-0.0051451013
64	0x3c9ee44c	0.01939597
65	0xbcfd1bde	-0.030897077
66	0x3deb6454	0.114937454
67	0xbd90424f	-0.07043897
68	0x3dacbf35	0.08434907
69	0xbdbf778e	-0.09348975
70	0x3d77f45f	0.060535785
71	0xbd7901fd	-0.06079291
72	0xbcf97d72	-0.030455325
73	0x3b8461ac	0.0040399637
74	0xbdd72a98	-0.10506171
75	0x3d351eff	0.044219013
76	0xbdc2b203	-0.09506609
77	0x3d2a8a3b	0.041635733
78	0xba63ced1	-0.0008690181
79	0xbaa69beb	-0.0012711262
80	0xbd7767b7	-0.060401645
81	0x3da954bf	0.08268117
82	0x3df709ce	0.12062417
83	0xbd310a97	-0.04322299
84	0x3dc5778b	0.09641942
85	0x3db7679e	0.0895531
86	0xbd1cdcb0	-0.0382964
87	0x3d8115bc	0.06302974
88	0x3d94c619	0.07264347
89	0x3d97bebf	0.07409429
90	0x3de87dc2	0.113521114
91	0x3dd55eb1	0.104184516
92	0x3d565960	0.05233133
93	0x3da27847	0.07933097
94	0xbd193f12	-0.037413664
95	0x3db75964	0.08952597
96	0x3d4b2888	0.0495992
97	0xbcab0334	-0.02087555
98	0x3dec00af	0.11523568
99	0xbd5777c8	-0.052604467
100	0x3d4bdfdb	0.049774032
101	0x3d7346ca	0.05939368
102	0x3cc1d013	0.023658788
103	0xbcbfe83a	-0.023426164
104	0x3c39a0d3	0.011329847
105	0x3d69c792	0.05707509
106	0xbd33f562	-0.043935187
107	0x3d552406	0.052036308
108	0x3d0eea83	0.034891617
109	0x3be44aee	0.00696694
110	0xbca8b22b	-0.02059277
111	0x3d7e5e93	0.06210191
112	0x3db6dac7	0.08928447
113	0xbd46a22a	-0.048494495
114	0x3dbd1067	0.09231644
115	0xbcabba31	-0.020962806
116	0x3d0d4a19	0.034494493
117	0x3dd4bcc0	0.10387564
118	0x3bd2def8	0.0064352714
119	0x3dc2bc1c	0.09508535
120	0xbc634141	-0.013870538
121	0xbd060618	-0.032720655
122	0xbd79e809	-0.0610123
123	0xbdc9a51a	-0.09845944
124	0xbd163be6	-0.036678217
125	0xbd6619fe	-0.05617713
126	0x3d4e343f	0.050342795
127	0xbd7aaf1c	-0.061202154
128	0xbd828ff5	-0.06375114
129	0xbc805a33	-0.01566801
130	0x3d18e4d8	0.037327617
131	0x3c1e85b6	0.009675434
132	0x3d0e7a73	0.034784745
133	0x3db8756e	0.09006773
134	0xbdb83291	-0.0899402
135	0xbceab55a	-0.028650928
136	0xbe08ed88	-0.13371861
137	0x3d87c765	0.06629828
138	0xbdbe23de	-0.09284185
139	0xbd0d697b	-0.034524422
140	0x3d9666fe	0.07343863
141	0x39741572	0.00023277642
142	0xbd85bcc2	-0.06530143
143	0x3cc955fa	0.02457713
144	0x3dacd222	0.08438517
145	0xbdd0476d	-0.101698734
146	0xbc436bd0	-0.01192756
147	0xbdd998a4	-0.10624817
148	0xbddfa27f	-0.109196655
149	0xbe027c1f	-0.12742661
150	0xbd01183a	-0.031517245
151	0x3c88a882	0.016681913
152	0xbdcf3655	-0.10117785
153	0xbdcba6fd	-0.0994396
154	0xbd6d9107	-0.057999637
155	0xbd99f324	-0.075170785
156	0x3c584d3b	0.013202007
157	0xbd707194	-0.058702067
158	0x3c383f29	0.011245527
159	0x3ced808e	0.028991964
160	0xbc745b6c	-0.014914375
161	0xbd8ecd92	-0.06972803
162	0x3ce48c70	0.027898997
163	0x3cdadf26	0.026717734
164	0x3d62aacf	0.055338677
165	0xbcfa5f04	-0.030562885
166	0x3dbbc3d5	0.09168211
167	0x3dc679af	0.09691178
168	0x3d940534	0.07227555
169	0xbd1543ff	-0.0364418
170	0xbdb40271	-0.08789528
171	0xbc834635	-0.016024688
172	0xbd62f60a	-0.055410422
173	0x3d2e990f	0.042626437
174	0xbd64e44b	-0.05588178
175	0xbd8cedf5	-0.06881324
176	0x3d956a3d	0.07295654
177	0xbce1b73f	-0.027553199
178	0x3db919f7	0.090381555
179	0xbc8f05e9	-0.017458873
180	0xbbd9c370	-0.0066456124
181	0x3cb45c8b	0.022016784
182	0xbb5a0582	-0.0033267443
183	0x3dd432e5	0.1036127
184	0x3d987c76	0.07445614
185	0xbdde7af7	-0.108632974
186	0xbafb2b8f	-0.0019162762
187	0x3cea5fdd	0.028610164
188	0x3deef523	0.1166785
189	0x3c3d005a	0.011535728
190	0x3ae896fa	0.001774519
191	0xbd392ce8	-0.04520884
192	0x3dc347e1	0.09535194
193	0x3daa1241	0.08304263
194	0x3d787bd1	0.060664956
195	0x3d8f48d1	0.069963105
196	0x3d79220d	0.06082349
197	0xbdc8e1db	-0.098087035
198	0x3ceaa90a	0.028645057
199	0xbdb454ea	-0.088052586
200	0x3c6c4cc6	0.014422601
201	0xbd05f622	-0.032705434
202	0x3bcc10cc	0.0062275883
203	0xbce52afb	-0.027974596
204	0x3dc805bf	0.09766721
205	0x3d81faee	0.06346689
206	0x3d410fef	0.047134336
207	0x3cd5f826	0.026119303
208	0xbd927515	-0.07151238
209	0x3de33b18	0.110952556
210	0xbd9a02c8	-0.07520062
211	0x3c163fe5	0.009170507
212	0xbd57f1c8	-0.052720815
213	0xbd872a3a	-0.06599851
214	0x3d06b9c2	0.032891996
215	0xbd119a82	-0.03554774
216	0xbd911c22	-0.07085444
217	0x3dd87ff0	0.10571277
218	0x3d890bb7	0.066916876
219	0xbd1375f2	-0.036001153
220	0x3ccfa97f	0.025349377
221	0xbd2c1017	-0.042007532
222	0x3c745a35	0.014914085
223	0xbd7e2395	-0.062045652
224	0x3d2ca6e4	0.042151347
225	0xbd81acc2	-0.06331779
226	0xbdbd3b94	-0.09239879
227	0x3dd0b8de	0.101915106
228	0xbd8d42fc	-0.06897542
229	0xbda1f354	-0.07907739
230	0xbc3bfb36	-0.011473468
231	0xbd66a835	-0.05631276
232	0xbde0fbbc	-0.109855145
233	0xbc4ac152	-0.012375193
234	0xbda8f799	-0.082503505
235	0x3db01cf4	0.08599272
236	0x3d453938	0.04815027
237	0x3d43d416	0.047809683
238	0xbdf3a2bb	-0.11896273
239	0xbd3604ce	-0.044438176
240	0xbdc88d5b	-0.097925864
241	0xbdc00fea	-0.09378035
242	0xbd23dceb	-0.040005606
243	0xbdbde51a	-0.09272213
244	0x3cca3160	0.024681747
245	0xbb06d58d	-0.0020574064
246	0x3dcfdfb8	0.10150093
247	0xbcf4798f	-0.02984312
248	0x3d85e336	0.06537478
249	0x3da9dce9	0.082940884
250	0xbd8f40bf	-0.06994771
251	0xbdc6ae8f	-0.09701263
252	0x3c9de325	0.01927335
253	0xbdc3d9c0	-0.09563017
254	0xbb26b00e	-0.0025434527
255	0x3c0a9e01	0.008460523

bias f4 [32]
0	0x3d888055	0.066651024
1	0x3ddd6131	0.108095534
2	0xbdb40c10	-0.08791363
3	0x3d387245	0.04503085
4	0xbd954f31	-0.07290495
5	0xbe0a264e	-0.13491175
6	0x3df7c28e	0.12097655
7	0x3d8303b3	0.0639719
8	0x3d082761	0.03324068
9	0xbd6b7fe6	-0.05749502
10	0x3d8776c8	0.066144526
11	0x3d89f231	0.067356475
12	0xbd7317e6	-0.059348963
13	0x3d91b7ca	0.07115133
14	0x3dc2bd66	0.09508781
15	0xbe0a792a	-0.13522783
16	0xbdbab172	-0.09115876
17	0x3e07b665	0.13253172
18	0x3d84568c	0.0646182
19	0xbc64eba6	-0.013972199
20	0x3c0c267d	0.008554098
21	0xbdd96752	-0.1061541
22	0xbb4976a0	-0.0030740872
23	0x3e12b002	0.14324954
24	0x3df1d470	0.11808097
25	0x3d627d4b	0.05529527
26	0xbd9403ad	-0.072272636
27	0x3d04e67e	0.032446377
28	0x3df32485	0.118722
29	0xbd1605c5	-0.036626596
30	0x3bd06172	0.0063592726
31	0x3cd9e864	0.02660007

weight f4 [32, 32, 5, 5]
0	0x3ce6323c	0.028100125
1	0xbc1e8690	-0.009675637
2	0xbb861103	-0.0040913834
3	0xbc0bc495	-0.0085307555
4	0x3c3fe674	0.011712659
5	0x3cb0d17d	0.021584267
6	0x3c4d6b75	0.012537827
7	0xbb502c1e	-0.0031764577
8	0x3c60eca4	0.0137282945
9	0x3c946c6f	0.018118111
10	0xbb630a5b	-0.0034643624
11	0x3c927151	0.0178763
12	0xbcbaef9c	-0.022819333
13	0x3c8a7934	0.016903497
14	0x3c7a8071	0.015289412
15	0xbb59d18a	-0.0033236467
16	0xbc98875b	-0.01861923
17	0x3c1f9258	0.009739481
18	0x3d0aef82	0.03391982
19	0x3b55f8d7	0.003264954
20	0x3b92d001	0.0044803624
21	0x3b87767b	0.004133997
22	0xbca68deb	-0.020331344
23	0x3c80bc36	0.015714746
24	0x3bbd8ca6	0.005784589
25	0xbc87fb30	-0.016599268
26	0x3c894e84	0.016761072
27	0xbce0ff81	-0.027465584
28	0x3c844b7a	0.016149271
29	0xbcc85893	-0.024456298
30	0x3c444935	0.011980345
31	0x3cf01236	0.029305559
32	0xb96ab146	-0.00022382019
33	0x3bffc8c7	0.007805917
34	0xbb33c70c	-0.0027431874
35	0xbcb90b79	-0.022588478
36	0x3a9c320a	0.0011916768
37	0xbd18d22a	-0.037309803
38	0xbbd91257	-0.0066245007
39	0x3afedcde	0.0019444486
40	0x3c295b3b	0.010336692
41	0xbb60a505	-0.0034278047
42	0xbd1f8b7f	-0.038951393
43	0xbcd1ef35	-0.025626758
44	0xbbe241f2	-0.006904834
45	0xbd100440	-0.035160303
46	0x3c96fd48	0.01843132
47	0xbced3f8f	-0.028960971
48	0x3c866ced	0.016409362
49	0x3c067b72	0.008208143
50	0xbc69118d	-0.014225376
51	0xbcfeefa0	-0.031120121
52	0x3bb67746	0.0055684177
53	0x3ced124e	0.028939392
54	0xbcbfa7a6	-0.02339537
55	0x3cb51240	0.022103429
56	0xbc8963df	-0.016771255
57	0xbcf68457	-0.030092401
58	0xbc22b776	-0.009931436
59	0x3cbfdfa2	0.023422066
60	0x3b88d1c7	0.004175398
61	0xbc81abf1	-0.015829058
62	0x3d075cd6	0.03304752
63	0xbccfc76c	-0.025363646
64	0x3ce59fed	0.02803036
65	0xbc5fb976	-0.013655057
66	0xba35bc84	-0.0006932693
67	0x3c523e4c	0.012832236
68	0x3cdd15d3	0.026987946
69	0x3ce942a4	0.02847416
70	0x3cbcdbb6	0.023053985
71	0x3b6c505f	0.0036058647
72	0x3c84af7b	0.016196957
73	0x3c9682b0	0.018372864
74	0xbce553cd	-0.02799406
75	0x3ca2551e	0.019815978
76	0xbc0dcfc1	-0.008655489
77	0x3c84f20f	0.016228704
78	0x3d0c59ea	0.034265436
79	0x3c8a67a5	0.016895125
80	0x3c5578c8	0.013029285
81	0xbcbc47d5	-0.022983471
82	0x3c8cca13	0.0171862
83	0xbcc9159e	-0.02454644
84	0x3c95bbef	0.01827809
85	0xbd081529	-0.033223305
86	0x3c350e47	0.011050767
87	0x3ca4ab30	0.02010116
88	0x3c298bbc	0.010348257
89	0xbbe1d7b7	-0.0068921703
90	0x3c933496	0.01796941
91	0x3d0f247a	0.034946896
92	0xbc911eac	-0.01771482
93	0x3d113867	0.03545418
94	0xbc893724	-0.016749926
95	0xbc3c0128	-0.011474885
96	0x3b930d0b	0.004487639
97	0x3c698e91	0.014255182
98	0x3cbc5d5d	0.022993738
99	0xbcaedf37	-0.021346672
100	0xbca960e5	-0.020676086
101	0xbcca0cb6	-0.024664264
102	0x3cfee17f	0.031113384
103	0xbc07c824	-0.008287463
104	0xbc8af2e3	-0.01696152
105	0xbbd8437a	-0.0065998407
106	0x3d04b08c	0.03239493
107	0x3cb56a09	0.022145288
108	0x3d0afd35	0.033932883
109	0xbb9ae2fb	-0.004726765
110	0xbc879ecf	-0.016555218
111	0x3cfd2913	0.030903375
112	0x3cffaf06	0.031211387
113	0x3cf34553	0.029696142
114	0xbcdbf05d	-0.026848013
115	0xbbdeb7bb	-0.0067968047
116	0x3d073dcd	0.033017922
117	0x3c995578	0.018717512
118	0x3ca6a66e	0.020343032
119	0xbbbe852b	-0.0058142147
120	0x3bd9712a	0.0066358047
121	0x3c6b103c	0.014347132
122	0x3cc705d9	0.02429478
123	0xbc333938	-0.010938935
124	0xbcc89bcc	-0.024488352
125	0xbcde44b5	-0.027132371
126	0x3c971e11	0.018446954
127	0x3d0e05b9	0.034673426
128	0x3d103b4b	0.035212796
129	0xbc39d5c9	-0.011342474
130	0x3ca73f3a	0.020415891
131	0xbc800f1a	-0.015632201
132	0x3cdd3c86	0.027006399
133	0xbb855d4d	-0.00406996
134	0x3b09356b	0.002093638
135	0xbcdcd94a	-0.02695908
136	0x3d00ba05	0.031427402
137	0xbccebc61	-0.02523631
138	0x3cba718a	0.022759218
139	0x3ccf0e4c	0.025275372
140	0x3ce11b99	0.02747898
141	0x3cb65dde	0.022261556
142	0xbc98423a	-0.018586267
143	0xbc12850b	-0.008942853
144	0xbcfb43d9	-0.030672
145	0xbcff426a	-0.031159598
146	0x3cb372ce	0.02190533
147	0x3d047c74	0.03234525
148	0x3cb33126	0.021874022
149	0xbc1fdc6b	-0.009757142
150	0x39f177a4	0.0004605624
151	0xbb2fc694	-0.0026821243
152	0x3c193930	0.0093520135
153	0xbc52d43e	-0.012867985
154	0xbc9d0390	-0.019166738
155	0x3be81987	0.007083121
156	0xbcdba11a	-0.026810218
157	0xbc9c5bfb	-0.019086828
158	0xbb44faa8	-0.003005663
159	0xbc8f7a4b	-0.017514369
160	0x3ca5587b	0.020183792
161	0x3d0dcae0	0.034617305
162	0x3c089cbd	0.008338151
163	0x3bab8ac7	0.0052350494
164	0xbc700d9b	-0.014651681
165	0x3c83417d	0.016022438
166	0x3c601f2b	0.013679306
167	0xbd0b8da5	-0.03407063
168	0x3d100c99	0.035168264
169	0x3ceeb88a	0.02914073
170	0x3ba52a41	0.0050404374
171	0x3c7615e1	0.015019865
172	0x3cf586d8	0.029971525
173	0x3ca4a391	0.020097526
174	0xbc67b260	-0.014141649
175	0x3c3f35bb	0.011670525
176	0xbc9863ee	-0.018602338
177	0x3babc3a0	0.005241826
178	0xbc65d770	-0.014028415
179	0xbc1bed35	-0.009517004
180	0xbc94763e	-0.018122789
181	0xbb8b2819	-0.0042467234
182	0xbc53c200	-0.012924671
183	0x3c5bbaf7	0.013411275
184	0x3cf8b6e4	0.030360647
185	0xbbeb2be7	-0.0071768644
186	0x3cf5e3da	0.030015875
187	0xbcba35e6	-0.022730779
188	0x3bf12013	0.00735856
189	0x3c44362b	0.011975805
190	0x3c6d135a	0.014469946
191	0xbc0adff4	-0.008476246
192	0xbc2a0c46	-0.010378903
193	0xbc5b61e3	-0.013390037
194	0x3ca8a6fb	0.020587435
195	0x3c3d4501	0.011552096
196	0xbc9451a3	-0.018105334
197	0x3c920117	0.017822785
198	0xbc084682	-0.008317592
199	0xbc9c5f87	-0.01908852
200	0x3cdec503	0.027193552
201	0x3cfb664d	0.03068843
202	0xbcab9eb1	-0.020949693
203	0x3cdbc13e	0.026825543
204	0x3c234141	0.009964288
205	0x3c371ee8	0.011176802
206	0xbbc9d96d	-0.0061599524
207	0xbc3a159c	-0.011357691
208	0xbc5a891f	-0.013338356
209	0xbca132f8	-0.019677624
210	0x3bd4de05	0.0064961934
211	0x3d0e2ee4	0.034712687
212	0xbd0ff90e	-0.035149626
213	0x3d0f8efd	0.035048474
214	0x3c16287e	0.0091649275
215	0x3cde21dd	0.027115757
216	0xbb297fe2	-0.0025863578
217	0xbb31cf67	-0.0027131678
218	0x3be7856f	0.007065467
219	0xbcad82a2	-0.021180455
220	0x3c90f10b	0.017693063
221	0x3c93aa1a	0.018025447
222	0x3ca0514e	0.01957002
223	0x3d0e5f37	0.034758773
224	0x3d11b0f5	0.03556915
225	0xbc8e65f1	-0.017382594
226	0x3b6d6b74	0.0036227377
227	0xbc978909	-0.01849796
228	0xbcc1ee4d	-0.023673201
229	0x3973e8dc	0.00023261033
230	0xbc4cc4e9	-0.012498119
231	0xbca0a295	-0.019608775
232	0xbc7fe300	-0.015618086
233	0xbc8810e3	-0.016609615
234	0x3cf1399a	0.029446412
235	0x3bf48c63	0.0074630245
236	0x3cf16537	0.029467208
237	0x3c9e38ef	0.019314257
238	0xbc9ff422	-0.019525591
239	0x3cca19cf	0.02467051
240	0xbba06718	-0.004895102
241	0xbc6c8303	-0.0144355325
242	0x3d0a95e9	0.03383437
243	0xbc8a270d	-0.016864324
244	0xba8e2a24	-0.0010846299
245	0x3c30bbad	0.010786933
246	0xbc0a8487	-0.008454449
247	0x3d07f542	0.03319288
248	0x3bcc728b	0.0062392405
249	0x3b7f3b6f	0.0038945337
250	0xbc681cde	-0.014167039
251	0xbd0ed9e5	-0.03487577
252	0x3b156e4f	0.0022801345
253	0x3c8ebcbc	0.01742398
254	0xbc6366ab	-0.013879458
255	0x3c35f454	0.011105616

bias f4 [32]
0	0xbce1a2b7	-0.027543409
1	0x3c1190e7	0.008884645
2	0xbc1509cc	-0.009096574
3	0x3d0634db	0.03276525
4	0x3d0f64ca	0.03500823
5	0x3c13f1fe	0.009029863
6	0xbc52a0fe	-0.012855766
7	0x3c812454	0.015764393
8	0x3ca653bd	0.020303601
9	0xbce004e5	-0.027346084
10	0xbbf94d81	-0.007608116
11	0x3b18724b	0.0023261483
12	0x3cffcaac	0.031224571
13	0x3b3b11ad	0.002854447
14	0x3c951e04	0.01820279
15	0x3d1b51e4	0.037919894
16	0x3cd6ed90	0.026236326
17	0xbcd0410b	-0.02542164
18	0x3d3b4b89	0.045726333
19	0xbc04c5e6	-0.008103823
20	0x3c8462c5	0.016160378
21	0xbcd8d270	-0.026467532
22	0x3bc9d150	0.006158985
23	0x3c54ff2e	0.013000293
24	0x3ba57db0	0.0050503835
25	0xbd23d442	-0.039997347
26	0xbc93ff76	-0.01806615
27	0x3d3b5069	0.045730982
28	0xbbd697b2	-0.006548845
29	0x3c548c5c	0.012972917
30	0x3c7ff47e	0.015622256
31	0x3c1ed3b8	0.009694032

weight f4 [64, 32, 5, 5]
0	0xbc06ac70	-0.008219823
1	0xbcb4a98c	-0.022053503
2	0xbc3c81bc	-0.01150554
3	0x3d10c064	0.035339728
4	0x3ccdce7d	0.025122875
5	0xbbc612b3	-0.0060447096
6	0xbc2cd95e	-0.010549871
7	0x3c31907b	0.0108376695
8	0x3cc73811	0.024318727
9	0x3c22b8b4	0.009931732
10	0x3cfb874d	0.030704165
11	0xbc0bfecb	-0.008544634
12	0xbc4c86cf	-0.012483313
13	0xbc8a775f	-0.016902624
14	0xbcae0363	-0.02124185
15	0xbca4d9d9	-0.02012341
16	0x3ce956a7	0.028483702
17	0x3c87b9cb	0.016568085
18	0x3ca3f704	0.020015247
19	0x3c5a52a8	0.013325371
20	0xbc353aa9	-0.011061349
21	0xbd0fcb0d	-0.035105754
22	0xbcee531d	-0.029092366
23	0x3b8759e8	0.0041305907
24	0xbb85066d	-0.004059604
25	0xbb85ee4d	-0.0040872456
26	0xbceb77c5	-0.028743634
27	0x3bc95da9	0.0061451984
28	0xbbdf731e	-0.006819143
29	0x3c011472	0.00787841
30	0xbcd96f43	-0.026542312
31	0xbce0318f	-0.027367381
32	0xbcd40fb8	-0.025886402
33	0xbc8bb1ba	-0.01705252
34	0xbc3807a6	-0.011232292
35	0x3cdf2926	0.0272413
36	0x3c342767	0.010995722
37	0xbc66a391	-0.014077083
38	0xba4daa20	-0.000784548
39	0x3bbf8fc1	0.005845994
40	0x3c5fd9ee	0.013662798
41	0x3c9bdc96	0.019026082
42	0xbc642d78	-0.013926856
43	0xbc620b3b	-0.013796623
44	0xbc9d80e4	-0.019226499
45	0x3cba4c17	0.02274136
46	0xbcd4df75	-0.025985459
47	0xbc8e5e6b	-0.017379006
48	0xbcf3033c	-0.029664628
49	0x3c8b67b6	0.017017227
50	0xbc978ff9	-0.018501269
51	0xbc9bc11c	-0.01901298
52	0xbc54a883	-0.012979629
53	0x3b093db9	0.002094133
54	0xbcbb29d6	-0.022847097
55	0x3b88715d	0.0041639046
56	0xbd0ab467	-0.03386345
57	0xbc0babfc	-0.008524891
58	0xbd0b7bfa	-0.03405378
59	0x3d0ffc71	0.035152856
60	0x3cd4e826	0.025989603
61	0x3bf46c01	0.007459164
62	0x3c1c3aeb	0.0095355315
63	0xbc2d2886	-0.010568744
64	0xbbb9e175	-0.0056726285
65	0x3a6a9265	0.0008948206
66	0x3c6e4045	0.01454169
67	0xbc8a2085	-0.01686121
68	0xbb38a279	-0.0028173013
69	0x3d12a3a6	0.0358006
70	0xbc002fd6	-0.007823905
71	0x3c836e7d	0.016043896
72	0xbb8dce8e	-0.0043276018
73	0x3d0fca0e	0.035104804
74	0x3ba61da3	0.005069451
75	0xbc8b8c32	-0.017034624
76	0xbc21d12b	-0.00987653
77	0xbcfa2a1a	-0.030537654
78	0x3cfaac81	0.030599834
79	0x3cd8d539	0.02646886
80	0xbd02ce87	-0.03193524
81	0x3d09f611	0.033681933
82	0x3ca7cbbe	0.020482894
83	0x3cc221a8	0.02369769
84	0x3c4eee7a	0.012630099
85	0xbc8fa776	-0.017535906
86	0xbcdf0616	-0.027224582
87	0x3d078337	0.03308412
88	0xbc83c33f	-0.016084312
89	0xbcf4fd0e	-0.029905822
90	0x3ce37b4b	0.027768752
91	0x3c27550e	0.01021315
92	0xbcd3c687	-0.025851501
93	0x3cf05d51	0.029341372
94	0x3cf8cd7d	0.030371422
95	0xbd0dbe7d	-0.034605492
96	0x3cac87b5	0.021060804
97	0xbd10a051	-0.03530914
98	0x3cec9e10	0.028883964
99	0x3cbaa557	0.022783918
100	0xbc5a9d33	-0.013343143
101	0xbcb48ab4	-0.022038795
102	0x3bd637a2	0.0065373937
103	0x3b6653b6	0.003514511
104	0x3cc3fb2c	0.023923479
105	0x3cfcf06f	0.030876366
106	0xbd0767fa	-0.033058144
107	0x3cda7856	0.026668709
108	0x3cbbe6b0	0.022937149
109	0x3cf103c1	0.029420735
110	0x3ce5736e	0.028009143
111	0x3c2ab8e3	0.010420057
112	0xbd0e95ed	-0.03481095
113	0xbd067912	-0.032830305
114	0xbca0178c	-0.019542478
115	0xb938c972	-0.00017622652
116	0x3cfb3165	0.030663202
117	0x3cd3903c	0.025825612
118	0xbcae1660	-0.021250904
119	0x3ceb6f6b	0.028739652
120	0x3c2bb842	0.010480942
121	0xbc73011d	-0.014831808
122	0xbc284e6b	-0.010272603
123	0xbcf209b7	-0.029545648
124	0xbc9ce463	-0.019151872
125	0x3c25a67f	0.010110497
126	0x3c9ea7e3	0.019367164
127	0x3d14dd27	0.03634372
128	0xbbd10094	-0.0063782427
129	0xbba8cc04	-0.0051512737
130	0x3c81058d	0.015749717
131	0xbcd84eeb	-0.026404819
132	0xbca784ca	-0.020449061
133	0xbc8258fd	-0.015911574
134	0x3d22b305	0.039721508
135	0x3d0e0646	0.03467395
136	0xbd0315f6	-0.032003365
137	0xbb9d15d0	-0.00479386
138	0x3cd19d4e	0.025587704
139	0x3cecefa8	0.02892287
140	0x3ca2a615	0.019854585
141	0x3d03754b	0.03209428
142	0x3cc1e400	0.02366829
143	0x3c1b057a	0.009461755
144	0xbc614b26	-0.013750827
145	0xbc0af5f3	-0.00848149
146	0x3cc734ea	0.024317224
147	0xbd0b5aca	-0.03402213
148	0x3ca4905a	0.020088363
149	0x3c9008cf	0.017582325
150	0x3c85ad5d	0.016318018
151	0xbca19c24	-0.019727774
152	0xbcf753b3	-0.030191278
153	0x3cc78c85	0.024358997
154	0x3cd16b5d	0.02556389
155	0xbcfd8b30	-0.030950159
156	0xbd0fe1b3	-0.035127353
157	0x3c7ffba8	0.015623964
158	0xbbd54882	-0.0065088877
159	0x3cb3cd5d	0.02194851
160	0xbbb96a25	-0.0056584054
161	0xbcb8cc67	-0.022558404
162	0xbc0dd618	-0.008657001
163	0xbc2a7dde	-0.010405986
164	0xbbaec7b4	-0.005333865
165	0xbcf5e952	-0.030018482
166	0x3cd47198	0.025933072
167	0xbcd673c7	-0.026178254
168	0xbce705c1	-0.028200986
169	0xb91e3a63	-0.00015089805
170	0xbc4c03d0	-0.012452081
171	0xbb23e307	-0.0025007145
172	0x3c929eaa	0.017897923
173	0xbce27f15	-0.027648488
174	0x3d0c74eb	0.03429119
175	0x3bd625c3	0.0065352633
176	0x3c8c4221	0.017121376
177	0xbcccf5e5	-0.025019595
178	0xbab11594	-0.0013510459
179	0x3cdfed28	0.027334765
180	0x3d0da95b	0.034585338
181	0x3cb8bc61	0.022550764
182	0xbb9ddc61	-0.004817531
183	0x3bf81b0f	0.007571585
184	0xbcda3eef	-0.026641337
185	0x3d0588da	0.032601215
186	0x3c5af9fc	0.013365265
187	0xbcbae8ed	-0.022816146
188	0x3caae0da	0.02085917
189	0xbc42fdba	-0.011901313
190	0xbc4dc745	-0.012559717
191	0x3cca7b5c	0.024717025
192	0x3c2ad2b0	0.010426208
193	0xbd030e93	-0.03199632
194	0x3c492543	0.01227695
195	0x3d048ece	0.03236275
196	0x3cf908b8	0.030399665
197	0xbced79a9	-0.028988676
198	0x3c951e20	0.018202841
199	0x3cd7b172	0.02632973
200	0x39f891ae	0.00047410786
201	0x3c4189a7	0.011812604
202	0x3ba24dd2	0.0049531246
203	0x3c15f512	0.009152668
204	0x3d0ce58f	0.03439861
205	0xbcbabad7	-0.02279417
206	0x376a1f91	1.39548365e-05
207	0x3c9dfeda	0.019286562
208	0xbcbf6e3a	-0.02336799
209	0x3c530f11	0.01288201
210	0xbc47a182	-0.012184503
211	0x3bf6e64b	0.0075347773
212	0xbccc1c2f	-0.024915783
213	0x3ca3d3b1	0.019998403
214	0xbcc35787	-0.023845447
215	0xbc684c14	-0.014178295
216	0xbbfa6ebf	-0.0076425965
217	0xbcc4d83b	-0.024028888
218	0x3ccbb9ea	0.024868924
219	0xbcf86623	-0.03032214
220	0xbb36e1a2	-0.0027905484
221	0xbc7e41ea	-0.015518645
222	0x3cf36126	0.02970941
223	0x3d095c16	0.033535086
224	0x3c7190bd	0.014743981
225	0xbc6d8d55	-0.014499028
226	0xbb40eb5d	-0.0029437162
227	0x3c8a5452	0.01688591
228	0x3c89d8a4	0.016826935
229	0xbb5312a0	-0.0032207146
230	0x3b880098	0.0041504614
231	0x3c2f3d3e	0.010695754
232	0xbcf70e25	-0.030158112
233	0x3b18bdea	0.0023306557
234	0xbc149563	-0.00906882
235	0x3cae18ba	0.021252025
236	0xbc8efe0e	-0.017455127
237	0xbceeb83c	-0.029140584
238	0x3cb6488d	0.022251392
239	0xbc5e2711	-0.013559119
240	0xbc3137ef	-0.010816558
241	0xbca55211	-0.020180734
242	0xbc477cb2	-0.012175726
243	0xbba423db	-0.005009157
244	0x3c33243b	0.010933931
245	0x3d0a9f75	0.033843476
246	0xbd054ab7	-0.032541957
247	0x3b4f1608	0.0031598825
248	0x3b1438ee	0.002261694
249	0xbc871db4	-0.016493656
250	0xbce2e8b7	-0.027698858
251	0xbd059bd0	-0.032619298
252	0x3c1e4c60	0.009661764
253	0x3c881bf8	0.016614899
254	0xbd0f6bf5	-0.035015065
255	0x3c53fd6e	0.01293884

bias f4 [64]
0	0xbc3436b0	-0.010999367
1	0xbc41cedd	-0.011829105
2	0xbcd3f915	-0.025875608
3	0xbce137d2	-0.027492438
4	0x3cc820d0	0.024429709
5	0x3c98d100	0.018654346
6	0x3c8e9fc6	0.01741017
7	0x3ca365d6	0.01994602
8	0xbc04f494	-0.008114953
9	0xbcfa30ff	-0.030540941
10	0xbbd66227	-0.0065424624
11	0xbcc560a6	-0.024093937
12	0x3ce17c17	0.027524991
13	0x3cf2762a	0.02959736
14	0x3c978be4	0.018499322
15	0x3d3e8d23	0.046521317
16	0x3c330ced	0.010928375
17	0xbd272c56	-0.040813766
18	0x3d1a5584	0.03767921
19	0xbbbc1fca	-0.0057410942
20	0x3b9dd346	0.0048164455
21	0x3cca7fc1	0.024719121
22	0xbc898bea	-0.016790349
23	0x3cd35a57	0.025799913
24	0xbcec0212	-0.028809581
25	0xbd0d34de	-0.034474246
26	0x3c403ec6	0.011733716
27	0x3c42b0fb	0.011883016
28	0xbd2ac7db	-0.041694503
29	0x3cb156ab	0.021647772
30	0xbcb16874	-0.021656252
31	0x3cf44dc6	0.029822242
32	0xbcba32ee	-0.022729363
33	0x3d0ff234	0.035143092
34	0x3ca9ba35	0.020718673
35	0xba55844f	-0.00081450207
36	0xbbc6fbdf	-0.006072506
37	0xbc8b42d7	-0.016999645
38	0xbcd7c157	-0.026337309
39	0xbce48cf4	-0.027899243
40	0x3c14f092	0.00909056
41	0x3c18e4e7	0.009331918
42	0x3c21a333	0.00986557
43	0xbcd9f11f	-0.026604233
44	0x3b89b75b	0.004202766
45	0xbcc14792	-0.023593698
46	0x3ab2fac6	0.0013655059
47	0xbcb4450c	-0.02200558
48	0xbd040fdb	-0.032241683
49	0x3cb897fc	0.02253341
50	0x3c53a7c3	0.0129184155
51	0xbd2f1394	-0.04274328
52	0x3c3b1a75	0.011419882
53	0xbce783f9	-0.028261172
54	0xbd1d06df	-0.03833663
55	0x3d1def78	0.038558453
56	0xbc8c71db	-0.017144134
57	0xbc2f2a97	-0.010691307
58	0xbcaf68ef	-0.02141234
59	0xbbdb0e80	-0.006685078
60	0xbc4079aa	-0.011747757
61	0x3cae4402	0.021272663
62	0x3ca3c50a	0.019991416
63	0xbbab576e	-0.0052289283

weight f4 [64, 1024]
0	0x3b954441	0.0045552556
1	0x3c090f56	0.008365473
2	0x3be59a28	0.0070069022
3	0x3ccfa2a6	0.025346112
4	0xba96b474	-0.0011497871
5	0x3cad9e6d	0.021193707
6	0xbcd0ff97	-0.0255125
7	0x3bf5b82f	0.007498763
8	0x3c7b94c4	0.015355293
9	0xbc9f6a9e	-0.019460019
10	0x3c8db697	0.01729898
11	0xbbe152c9	-0.006876324
12	0xbc609f8f	-0.013709917
13	0xbc83227d	-0.016007656
14	0xbbd8bd38	-0.0066143535
15	0xbca5bf04	-0.020232685
16	0xbce58dfc	-0.028021805
17	0xbc88ddcf	-0.01670733
18	0x3bc9ade4	0.0061547626
19	0xbcbcc640	-0.023043752
20	0xbc83d15b	-0.01609104
21	0x3cb67a71	0.022275181
22	0x3c481718	0.012212537
23	0x3964e24b	0.00021828075
24	0xbc10a096	-0.008827349
25	0x3c40250e	0.0117275845
26	0xbcbdb21a	-0.023156215
27	0x3ca1ac0f	0.019735364
28	0x3c76126d	0.0150190415
29	0x3ce52305	0.0279708
30	0x3c64bcb4	0.013961006
31	0xbc39f5c4	-0.011350099
32	0xba9c0b06	-0.0011905141
33	0x3d028880	0.031868458
34	0xbc9b24d6	-0.018938463
35	0x3c7fe19c	0.015617754
36	0xbad651b8	-0.0016351258
37	0xbca97809	-0.02068712
38	0xbcebd0a0	-0.028786004
39	0x3b9fba84	0.0048745293
40	0xbc2e75ca	-0.0106482
41	0xbd0483e2	-0.032352336
42	0x3ce7637f	0.028245686
43	0xbc6f65e4	-0.014611695
44	0xbcaa9295	-0.020821849
45	0xbcf1453c	-0.029451959
46	0xbccf82d3	-0.025330937
47	0x3c945ab5	0.018109659
48	0xbcc99506	-0.024607193
49	0x3bd68f84	0.00654787
50	0x3ce2327e	0.027611967
51	0xbacbf0fc	-0.001555949
52	0xbcd1ff6e	-0.025634494
53	0xbbd73cc6	-0.006568524
54	0xbcde35cf	-0.027125267
55	0xbcb7c6bf	-0.022433637
56	0xbc01cb54	-0.007922012
57	0xbc9fe72f	-0.019519417
58	0x3cb22da2	0.021750275
59	0xbbacca8a	-0.005273168
60	0x3cd451a5	0.025917837
61	0x3c0fe5ca	0.008782813
62	0x3cc899a7	0.02448733
63	0xbcf72708	-0.030169979
64	0xbbbf38d3	-0.0058356314
65	0x3d02e42a	0.031955875
66	0xbcd3484b	-0.025791308
67	0x3cd396d4	0.025828756
68	0x3cfd0d33	0.030890083
69	0x3cf4c095	0.029876987
70	0xbcbfa470	-0.02339384
71	0x3cac75ac	0.021052204
72	0x3c47c45c	0.012192812
73	0x3bf8a45d	0.007587953
74	0x3c51b65d	0.012799826
75	0xbcf07ce2	-0.029356424
76	0x3cab56dc	0.020915441
77	0xbc5385b3	-0.012910294
78	0x3b336872	0.0027375487
79	0x3ca74866	0.020420264
80	0x3bfc9100	0.007707715
81	0xbcaa37f6	-0.020778637
82	0x3cc13ee9	0.023589568
83	0x3c17a4a0	0.009255558
84	0xbaa3d435	-0.0012499156
85	0xbbb6606b	-0.005565693
86	0x3ce077e5	0.02740092
87	0x3c197a14	0.009367485
88	0xbce4b7c5	-0.02791966
89	0x3c2ed86a	0.010671714
90	0xbb02a64a	-0.0019935542
91	0xbb091e86	-0.0020922734
92	0x3cc5e55d	0.02415722
93	0x3bbbfdd3	0.0057370453
94	0xbcaa15d8	-0.020762369
95	0x3c20bb75	0.009810318
96	0x3c17938d	0.009251487
97	0xbcb5a99d	-0.022175604
98	0xbcc002bf	-0.02343881
99	0xbcdb1f03	-0.026748186
100	0x3cf5450b	0.029940149
101	0xbcf24018	-0.029571578
102	0xbc2af7c4	-0.0104350485
103	0xbc78122f	-0.015141054
104	0xbca1a4eb	-0.01973196
105	0xbcda7a22	-0.026669566
106	0x3c60a38a	0.013710866
107	0xba2cc46d	-0.0006590549
108	0xbc16b436	-0.009198239
109	0x3c3ee706	0.01165176
110	0xbc973191	-0.018456252
111	0xbbc3506a	-0.005960514
112	0x3c5096f3	0.012731302
113	0xbc109afb	-0.008826013
114	0x3cd897aa	0.026439507
115	0x3c405e5f	0.01174125
116	0xbcea5aa1	-0.028607668
117	0x3c39c4f9	0.011338466
118	0x3b1b247e	0.0023672874
119	0x3bb70923	0.005585806
120	0xbc35f4c9	-0.011105725
121	0x3bf78f93	0.007554957
122	0xbd05fd31	-0.032712165
123	0xbc574c63	-0.013140771
124	0xbcf0b0fa	-0.029381264
125	0xbc79ed17	-0.0152542805
126	0x3bb1e586	0.0054289727
127	0x3b083f2d	0.0020789609
128	0x3bff28eb	0.00778686
129	0x3ce78be4	0.028264947
130	0xbccafdd4	-0.024779238
131	0x3b335b97	0.0027367824
132	0xba07e34c	-0.0005183711
133	0xbbcb1dfa	-0.006198642
134	0x3c4160cc	0.011802863
135	0x3cde835d	0.027162248
136	0xbcc3f9d2	-0.023922835
137	0x3c589b22	0.01322058
138	0xbce2f2ae	-0.02770361
139	0x3bce87b9	0.0063028005
140	0xbcb99ac7	-0.022656811
141	0x3cc46a67	0.023976518
142	0x3c9ece5d	0.019385511
143	0xbb666d78	-0.0035160463
144	0xbc94d131	-0.018166156
145	0x3cd7845d	0.026308233
146	0x3bd6cac1	0.006554932
147	0xbca2a149	-0.019852297
148	0xba16d8de	-0.00057543616
149	0xbc91b295	-0.01778535
150	0xba089a43	-0.0005210975
151	0xbc0bf508	-0.008542307
152	0x3c530ed3	0.012881952
153	0xbb4963d6	-0.0030729673
154	0x3c9ba6ab	0.019000372
155	0xba5e0aac	-0.0008470218
156	0xba1878d2	-0.00058163435
157	0xb8f6c08b	-0.00011766058
158	0xbc0e1911	-0.0086729685
159	0xbceeec94	-0.029165544
160	0xbc2dfcd3	-0.01061936
161	0xbc1fbe31	-0.009749935
162	0x3c08e31a	0.0083549265
163	0xbbd13d0d	-0.0063854516
164	0xbcc6035d	-0.024171526
165	0xbcc37375	-0.023858765
166	0x3cd72117	0.026260896
167	0x3c19c0f7	0.009384385
168	0x3b9d007a	0.0047913166
169	0x3cb06100	0.021530628
170	0xbc8d459e	-0.01724511
171	0x3cdd0754	0.026981033
172	0x3cd93c57	0.02651803
173	0x3ceaa285	0.028641948
174	0x3c40286f	0.01172839
175	0xbc18e878	-0.009332769
176	0x3ca31ee3	0.019912189
177	0x3c5704bc	0.013123687
178	0x3a8bae66	0.0010656833
179	0xbc6d7231	-0.014492557
180	0x3aab2861	0.0013058299
181	0x3c79b9c0	0.01524204
182	0xbcbf28a4	-0.023334809
183	0x3c4e30bb	0.01258486
184	0x3cb8cf1c	0.022559695
185	0xbc3e822b	-0.011627714
186	0xbc9f5b3a	-0.01945268
187	0x3cc402ac	0.023927055
188	0xbc3d1d5d	-0.011542645
189	0x3ccd6892	0.025074277
190	0xbc4ef3e4	-0.01263139
191	0xbc2108ff	-0.009828805
192	0xbc9cb494	-0.019129075
193	0xbc41c062	-0.011825653
194	0xb9d08f34	-0.00039779546
195	0x3ccfaf9f	0.025352297
196	0xbcdd3fcc	-0.02700796
197	0x3c956673	0.018237328
198	0xbb517827	-0.0031962486
199	0xbc5cc454	-0.013474543
200	0x3c43bf90	0.0119475275
201	0x3c0f5e82	0.00875056
202	0xbcc4485d	-0.023960287
203	0x3cb71e82	0.022353414
204	0xbb75c9c3	-0.0037504293
205	0xbc24bdaa	-0.010054985
206	0x3b564497	0.0032694691
207	0xbc052fa9	-0.008129039
208	0x3cf3b846	0.029750954
209	0x3be90293	0.0071109026
210	0x3c908cb6	0.017645221
211	0xbd0d41dd	-0.03448664
212	0x3c2e5963	0.010641429
213	0xbcc0a6e8	-0.023517087
214	0x3d16d7bc	0.036826834
215	0x3c8f26da	0.01747458
216	0xbc24069d	-0.010011342
217	0xbba64032	-0.0050735706
218	0xbb45ae0f	-0.0030163561
219	0xbac3edfb	-0.0014948243
220	0xbc07c711	-0.008287207
221	0x3c4428a7	0.011972583
222	0x3c865a1a	0.016400386
223	0x3ac55ae6	0.0015056997
224	0x3b822c6a	0.0039725797
225	0xbb5e0db3	-0.0033882677
226	0xbd06b123	-0.032883774
227	0xbcf961fb	-0.030442229
228	0xbb8cd233	-0.0042975186
229	0x3c68b61d	0.014203575
230	0xbc529ee1	-0.0128552625
231	0xbc1feae4	-0.009760592
232	0x3bedc284	0.007255854
233	0xbca8cb44	-0.020604737
234	0x3cf0f958	0.029415771
235	0xbc6fa42f	-0.014626547
236	0xbcd36275	-0.025803784
237	0x3ce3b5ee	0.027796712
238	0xbcf51f99	-0.029922293
239	0xbc8d913e	-0.017281171
240	0xbc96de36	-0.018416505
241	0xbcd63efc	-0.02615308
242	0x3b9f6ca6	0.004865247
243	0x3c850f7d	0.016242737
244	0xbcb86cf5	-0.022512892
245	0xbcaddd28	-0.02122362
246	0xbca25bb4	-0.019819118
247	0x3b5184a7	0.0031969936
248	0x3cd9d223	0.026589459
249	0xbc2ad1fb	-0.01042604
250	0xbc5e0933	-0.013551998
251	0xbca46ce9	-0.020071464
252	0xbcfe0766	-0.031009387
253	0x3c862c63	0.016378587
254	0xbcb34ca2	-0.021887127
255	0x3cf27736	0.02959786

bias f4 [64]
0	0xbc8d0fbd	-0.017219419
1	0xbc834a98	-0.01602678
2	0xbcad31dd	-0.02114194
3	0x3ce235fa	0.027613629
4	0xbbdda17a	-0.0067636343
5	0x3cea64e9	0.02861257
6	0x3c416844	0.011804644
7	0xbc381191	-0.011234657
8	0xbc414fdc	-0.011798825
9	0xbc78a5eb	-0.015176277
10	0xba776c9e	-0.00094384875
11	0x3bf1bb7f	0.0073770876
12	0x3c809082	0.015693907
13	0xbcddd08c	-0.027076982
14	0xbc1435fc	-0.009046074
15	0xbcf389fa	-0.029728878
16	0x3a9a4ea8	0.0011772709
17	0x3a67e31a	0.00088457915
18	0xbc8693d3	-0.01642791
19	0xbac7e8ad	-0.0015251838
20	0x3cc4142b	0.023935398
21	0x3cd1c16d	0.025604928
22	0xbc65444b	-0.013993333
23	0xbc6657a6	-0.014058983
24	0xbc65ba19	-0.01402142
25	0x3c362310	0.011116758
26	0x3bf54926	0.0074855266
27	0xbc8df088	-0.017326608
28	0xbbbf6712	-0.0058411444
29	0x3b8282bd	0.0039828704
30	0x3ca9efdd	0.020744259
31	0x3cd997ec	0.0265617
32	0x3d20d9cf	0.03927022
33	0xbc624731	-0.013810919
34	0x3b22b8ca	0.002482938
35	0xbc5325ce	-0.012887431
36	0xbcbfe62e	-0.023425188
37	0x3cb6eb61	0.022329034
38	0xbb8d9308	-0.004320506
39	0xbd1d10bc	-0.038346037
40	0x3d2514b0	0.040302932
41	0x3cb51d0f	0.022108583
42	0x3ba92157	0.005161445
43	0x3c17fed3	0.009277063
44	0x3b882f2f	0.0041560153
45	0xbcb2dd46	-0.021834027
46	0x3cc9cf15	0.024634877
47	0xbc60935c	-0.013707008
48	0xbc85bfed	-0.016326869
49	0x3c741fe1	0.014900179
50	0xbcc33cd7	-0.023832722
51	0x398b0fc3	0.0002652389
52	0x3c8e1f94	0.017349042
53	0xbcd8413f	-0.0263983
54	0x3babb2d4	0.005239824
55	0xbce68290	-0.028138429
56	0x3c94e225	0.01817424
57	0xbb5e20df	-0.0033894104
58	0xbcfaff5b	-0.030639341
59	0xbd2b9c32	-0.041897006
60	0xbd2ebe6f	-0.04266208
61	0xbd090a82	-0.033457287
62	0x3c3f26ff	0.011667012
63	0x3cc4d9e5	0.024029681

weight f4 [10, 64]
0	0xbd04742f	-0.032337364
1	0x3dbe3fda	0.092895225
2	0xbd680d89	-0.056653533
3	0xbdde7231	-0.10861624
4	0xbe018473	-0.12648182
5	0xbdfc05bf	-0.123057835
6	0x3ddabe38	0.106808126
7	0x3c4ef053	0.01263054
8	0xbdbf0a71	-0.093281634
9	0xbcdb96d8	-0.026805326
10	0x3d1f1220	0.038835645
11	0x3d4e3531	0.050343696
12	0xbd72755d	-0.059193958
13	0xbdf780b0	-0.12085092
14	0xbcfbde64	-0.030745693
15	0x3c9d1735	0.019176105
16	0x3dffd631	0.12492026
17	0x3d09a429	0.03360382
18	0x3da4d7c2	0.08048965
19	0x3d628428	0.055301815
20	0xbe085cc9	-0.13316645
21	0xbce7f479	-0.028314816
22	0xbdfe0e42	-0.12405063
23	0xbd62024d	-0.055177975
24	0xbdd1f99c	-0.10252687
25	0x3df7e1e4	0.12103632
26	0xbda095b5	-0.07841054
27	0xbde97f95	-0.114012875
28	0xbde043c3	-0.109504245
29	0xbdc07b3f	-0.09398507
30	0x3ba004a7	0.004883367
31	0x3dbb81aa	0.09155591
32	0xbdfb747b	-0.12278076
33	0xbdc27746	-0.09495406
34	0xbdf16938	-0.11787647
35	0xbc595c9e	-0.013266711
36	0x3dd29063	0.10281446
37	0x3c585579	0.013203972
38	0xbc94690b	-0.018116495
39	0x3de09eda	0.109677985
40	0xbd027c6a	-0.03185693
41	0xbde99e69	-0.114071675
42	0x3d2edaa3	0.042688977
43	0x3df9953f	0.121866696
44	0xbd9ab3e8	-0.07553846
45	0xbe046d9f	-0.12932442
46	0xbddd9ce8	-0.10820943
47	0x3dbec1e4	0.093143255
48	0x3db8cfc8	0.09024006
49	0x3d6b0eea	0.05738727
50	0xbd394ffd	-0.0452423
51	0xbded8c3f	-0.115990154
52	0x3dfef092	0.12448229
53	0xbd6dc9c9	-0.058053765
54	0x3df46284	0.11932853
55	0xbd997b02	-0.07494165
56	0x3d11c638	0.035589427
57	0xbd1ac0d0	-0.037781537
58	0x3dfd62de	0.12372373
59	0x3dbf2dd5	0.09334914
60	0x3df21da0	0.11822057
61	0x3d9d1ca3	0.07671478
62	0x3dec510b	0.11538895
63	0x3cd35b49	0.025800364
64	0xbb34a6ea	-0.002756531
65	0x3d5a76d4	0.05333598
66	0xbd9ccf62	-0.07656743
67	0x3d945140	0.0724206
68	0xbcdfcf79	-0.02732061
69	0x3bbb133e	0.005709081
70	0x3de784e6	0.11304645
71	0x3dbc0117	0.09179895
72	0xbdff969b	-0.124798976
73	0x3daf66fd	0.08564565
74	0xbda05262	-0.07828213
75	0x3d25c929	0.040475044
76	0x3e00434e	0.12525675
77	0xbddda5fe	-0.10822676
78	0xbdd8c1bc	-0.10583827
79	0x3c0387f1	0.008028016
80	0xbdd79c98	-0.10527915
81	0xbd6b8632	-0.057501025
82	0xbd0a848b	-0.03381781
83	0x3d9bf35f	0.07614779
84	0x3bcc11c4	0.0062277038
85	0x3d59aa38	0.05314085
86	0x3da02761	0.07820011
87	0x3d73ef73	0.05955453
88	0x3d855172	0.06509675
89	0xbc03b8f7	-0.0080397045
90	0xbd364d9c	-0.044507608
91	0xbdf0d9f0	-0.11760318
92	0xbe03262e	-0.12807533
93	0x3d1610ed	0.036637235
94	0xbd925308	-0.07144743
95	0xbdd0b2f3	-0.10190382
96	0xbd3922e6	-0.045199297
97	0xbe153491	-0.14570834
98	0x3c4a8e37	0.012363008
99	0xbabacd8e	-0.0014251934
100	0xbdbd1e76	-0.092343256
101	0xbbaae544	-0.005215319
102	0x3ccb3600	0.024806023
103	0xbcd1691f	-0.025562821
104	0xbd51d74f	-0.051230725
105	0x3dafcaef	0.085836284
106	0x3d1bb9c7	0.038018968
107	0x3d60505d	0.05476414
108	0xbdf91759	-0.12162656
109	0xbce212bd	-0.027596826
110	0x3c8008d1	0.015629204
111	0x3d8021e3	0.062564634
112	0xbdde047b	-0.10840698
113	0x3dc5f4d8	0.09665841
114	0xbda2c869	-0.079483815
115	0x3e028991	0.1274779
116	0xbdddd34f	-0.108313195
117	0x3c661e0d	0.014045251
118	0xbd078d8b	-0.03309397
119	0x3dbf11c1	0.09329558
120	0x3d50bb50	0.050959885
121	0xbe16e930	-0.14737391
122	0x3c81c981	0.015843155
123	0xbddcddb1	-0.10784472
124	0xbdca1066	-0.09866409
125	0x3c3a8fb5	0.0113868015
126	0x3e06966a	0.13143316
127	0x3d6204c2	0.05518032
128	0xbdc722f2	-0.09723462
129	0x3de12b11	0.109945424
130	0xbd255513	-0.040364336
131	0x3e01da54	0.12680942
132	0xbd7d7806	-0.06188204
133	0xbdbef7bd	-0.09324596
134	0xbb45ecdd	-0.0030200996
135	0xbd6cd7fc	-0.057823166
136	0x3cf98516	0.030458968
137	0x3deec48c	0.11658582
138	0x3d080d56	0.033215843
139	0x3e0155f8	0.1263045
140	0x3dba5f39	0.091001935
141	0xbd4e2de5	-0.050336737
142	0x3dd5e6fb	0.10444447
143	0x3c55b1f9	0.01304292
144	0x3daa33d8	0.0831067
145	0x3d5d6898	0.054054826
146	0x3d0ed428	0.034870297
147	0x3dd0c360	0.10193515
148	0xbdc63285	-0.096776046
149	0x3d297e7c	0.04138039
150	0x3d74e3d9	0.059787605
151	0xbd62e0bd	-0.05539011
152	0x3cd2e077	0.025741799
153	0x3e0c0639	0.13674249
154	0x3de4de91	0.11175264
155	0xbd6173ac	-0.055041954
156	0x3cdbbe49	0.026824133
157	0xbdd6d409	-0.10489661
158	0x3d84462f	0.06458699
159	0xbc908d7c	-0.01764559
160	0xbae0d51a	-0.0017153353
161	0x3d40c5bf	0.047063585
162	0x3db5581c	0.08854696
163	0x3dcdc837	0.100479536
164	0xbc6f1b2d	-0.014593882
165	0xbe01528f	-0.1262915
166	0xbc8b88ac	-0.017032944
167	0xbd01d656	-0.031698547
168	0x3ce88b53	0.028386747
169	0xbc668db9	-0.014071875
170	0xbcda8790	-0.02667597
171	0xbbe5757b	-0.00700253
172	0xbd8a799f	-0.06761479
173	0x3df72adc	0.12068722
174	0x3d0cb17d	0.034348954
175	0xbdde6974	-0.10859957
176	0x3cabeb92	0.020986352
177	0x3dd71717	0.10502451
178	0xbd9f089b	-0.07765313
179	0xbcd4e562	-0.025988284
180	0x3d1ecf37	0.038771834
181	0xbd3ebaea	-0.046564974
182	0x3d8dca90	0.06923401
183	0x3d4cdfc9	0.050018106
184	0x3b829f9a	0.003986311
185	0x3d96f16d	0.07370267
186	0xbdc7634b	-0.097357355
187	0xbba8fae5	-0.005156862
188	0xbdc4ccda	-0.09609385
189	0x3dc288a0	0.094987154
190	0xbdc39452	-0.09549774
191	0xbd98c9ec	-0.074603885
192	0xbd2ac863	-0.04169501
193	0x3def88c1	0.116960056
194	0xbd795ea4	-0.060881272
195	0x3cde76b1	0.027156206
196	0x3ccbb96b	0.024868688
197	0xbb3b7341	-0.0028602632
198	0xbe018806	-0.12649545
199	0x3d9c2933	0.076250456
200	0x3ca59f4a	0.020217557
201	0x3e1782d9	0.14796008
202	0x3d8203e1	0.06348396
203	0xbce4645a	-0.027879883
204	0xbdd97d2d	-0.106195785
205	0x3c4ab3e7	0.012371994
206	0x3b1041b8	0.0022011828
207	0xbdaeda68	-0.085377514
208	0x3d3e8ac4	0.046519056
209	0xbd757318	-0.059924215
210	0x3cbfba90	0.02340439
211	0x3de339aa	0.11094983
212	0x3d590993	0.052987646
213	0x3b9b934d	0.004747784
214	0xbc64a5c5	-0.013955538
215	0xbd844860	-0.06459117
216	0x3df1f1e8	0.11813718
217	0x3da9784a	0.082748964
218	0x3bec4621	0.0072105085
219	0xbc9250d5	-0.01786081
220	0x3d8fcb7b	0.07021233
221	0xbdd303a8	-0.10303432
222	0xbd0501e9	-0.032472525
223	0xbd46f859	-0.048576687
224	0x3d4956e1	0.04915512
225	0x3db11757	0.0864703
226	0x3d2c1aa9	0.042017613
227	0xbd4c96d7	-0.04994854
228	0xbdcdf1cb	-0.10055884
229	0x3c3c0ff6	0.011478415
230	0x3db42418	0.08795947
231	0x3c859037	0.016304119
232	0xbdcabb24	-0.098989755
233	0x3d0403a5	0.03223004
234	0x3dd54657	0.10413807
235	0xbda70e63	-0.08157041
236	0xbdbf95ab	-0.09354719
237	0xbcb94015	-0.022613565
238	0xbcf56fc5	-0.029960522
239	0x3d834379	0.06409354
240	0x3cd76c25	0.026296685
241	0x3d6340f3	0.055481862
242	0x3ca254c1	0.019815804
243	0xbc144a5b	-0.009050931
244	0x3de95500	0.113931656
245	0xbc6360dd	-0.0138780745
246	0x3d727277	0.059191193
247	0xbda5a0f8	-0.08087343
248	0x3a657e41	0.000875447
249	0xbd94b469	-0.07260973
250	0xbdeb766e	-0.11497198
251	0x3db72a85	0.08943657
252	0xbccc7dad	-0.02496227
253	0xbd6a520b	-0.05720715
254	0xbcf87def	-0.030333487
255	0x3d6f053a	0.058354594

bias f4 [10]
0	0xbe17bc5e	-0.1481795
1	0x3d403add	0.046931136
2	0x3c70e0ee	0.014702065
3	0x3db80714	0.08985725
4	0x3d7a7282	0.06114436
5	0x3d8f90a0	0.07010007
6	0x3d9b351d	0.0757849
7	0xbd4e1f43	-0.050322782
8	0xbd31e8b4	-0.043434814
9	0x3d35a720	0.044348836
