src/tudui_29_gpu.pth (torch, 588169 bytes, 10 tensors)

weight f4 [32, 3, 5, 5]
00000000: fabb 363b d298 8bbc 6c31 6fbd 210f e83d
00000010: 4b16 a93c 81e8 6ebe f563 83bc 8dff 6d3e
00000020: 0786 02be 523f 413d 9b62 fd3d 91f9 fd3b
00000030: af0b c13c 698d 52be 11e2 1bbe d070 823e
00000040: 1d6b c1bd 8eef 69be 18be 64bd fce2 fbbd
00000050: 65ce 14be 85ca b63c 00e3 523d d8a3 07bd
00000060: b65f 1cbd 9974 00be 978c 1ebe 33dc 67bd
00000070: a737 613e 5aad ce3d f90b f1bd f46c b63d
00000080: e505 133e a310 aebd 75fc 173e a105 a73c
00000090: d6d3 363e 54fd 123e 5060 12be ea1d 713c
000000a0: 306d 863e 6597 903d 9259 4bbe 47d1 943d
000000b0: a7ce 833c 45a7 94bd 8f0e 0dbe 790c bbbd
000000c0: eb5a 6d3e 01c0 c03b f392 e83b e7bf 86bd
000000d0: 7a2f 983d be54 5fbd 472d 0fbd 2986 22be
000000e0: 8202 81bd 2d21 653e ea02 a1bd 906f b23c
000000f0: 1ca9 95bd f03e 183e a303 adbd 6d19 95bd
00000100: 69db fc3b 5c55 603e 1d5d 01be dfa0 0dbe
00000110: 9c77 003e 6a1b 74bd 9061 c93d 369c a93c
00000120: a758 b2bd ae14 c43c 6edd 813d e244 0cbe
00000130: c3ba d23c c7ae 29be 4cc9 353d 625d 463e
00000140: a131 09bc d53d 90bc e193 c93c bcd1 5cbe
00000150: f062 a9bd b857 d13d 9254 213e 0eb3 203d
00000160: 9ae6 67be 170f 01be 6637 3f3d 0620 01bd
00000170: 8cbc 523e 0793 9f3d 19ce 2cbe 1bfb 833d
00000180: c78c 983d a1f7 603e 73e6 ec3d 9169 bfbd
00000190: 9f8a 993b 3083 0ebd 81a2 ecbd 265b 17be
000001a0: a735 9a3c b43f c2bb 3265 16be 5821 6cbc
000001b0: d0b2 8ebe 20fb 14be d7cf 233e af3e ff3c
000001c0: 5117 12bc c35a 8bbe 2476 b9bd ce96 fe3d
000001d0: 465e d3bb 6f23 863d bc1f 9e3d 3989 e4bd
000001e0: 7d7c ac3d ae02 a8bc 6373 3d3e 5ba0 133e
000001f0: 9c08 33bd 53bd 753d 4ae3 85bd 6a3b 5ebd
00000200: 5b36 bbba 7f8e 8bbd 36e8 72bd 1308 b3bd
00000210: 46f0 1fbe f9d6 53be 207f 18bd 0e57 3d3e
00000220: d349 de3d 4be0 5b3d 2ad3 f8bd a21f 94be
00000230: 5c1c 063e 710b 403e 9bae 1b3e 090f be3c
00000240: 7cc1 0bbe 7bd3 a83d 0529 993d b850 563e
00000250: e204 3f3e 26c0 1cbd 7863 873d 75d8 7b3d
00000260: 312e bf3d a16a 443e 58d1 1d3d 1ca9 4ab9
00000270: b019 8f3d ccd8 19bc 0635 2c3e 37f9 2f3e
00000280: 2c59 643c 1176 acbd 5cf6 1dbd 533b f8bc
00000290: e741 3d3d 387b c5bd 49b3 1ebe 599d ebbd
000002a0: f966 dbbd 11f8 75bd 3335 423d 314b 513c
000002b0: dcc3 bb3d 7e89 91bd 6e65 b83c f8ef 413d
000002c0: eb1e 083e e0cf 00bd 14e8 693d 0862 22bd
000002d0: d101 fdbd 04c0 abbd 055b 133d 5093 403d
000002e0: 6753 0b3e 5fac 883d e094 9a3b 34bc d2bd
000002f0: 9d53 01be 860b 0bbd 7929 f4bd d527 f5bd
00000300: 0024 89bd b9ab 4bbe 4be6 543d a652 b63c
00000310: 8b0b 5bbd efdc 00be f5b6 0dbe 4969 23bd
00000320: 1a31 a53d d598 99bd de1a 023e 5932 0c3e
00000330: 75b9 e43c e32c e1bc 038f e3bd 4a97 ebbc
00000340: 8a3f 2f3e 079f 513e a208 733d 1023 813d
00000350: 8a34 dabd 7a09 96bd 1aaf 453e 209f cbbd
00000360: 0fad 35bd cf40 74bc d491 31bd 24d5 ca3a
00000370: 70a3 353d f5a9 c0bd 6a53 1dbd cc1d 593d
00000380: 39e1 aebd e964 1dbd 7185 0fbd e9c8 b13d
00000390: 5eca 57bd eea1 89bd 6f45 49be dbe8 3cbd
000003a0: 582b 183e 2c05 b7be 1f60 b33d fde0 00be
000003b0: c4d2 ee3d fbc9 e63d deaf ecbe fdaa 713e
000003c0: 1e3b 31be 8196 e53d 3298 6abd cc9f c6be
000003d0: 47ec a43e 0a2f 01be b343 7b3d cd67 c43a
000003e0: 96b3 50be 0444 943d e852 08bd dd3e 78bd
000003f0: 9f75 2b3e 01f5 89bd a03a 7d3d c444 a0bc
0.002788304 -0.017040644 -0.05839674 0.113310106 0.020640513 -0.2333088 -0.016038874 0.23242016
-0.1274644 0.047179528 0.12372323 0.007750698 0.023565141 -0.20561756 -0.15222956 0.25476694
-0.09444258 -0.22845289 -0.05584535 -0.12299153 -0.14531858 0.022313366 0.051486015 -0.033115238
-0.038177215 -0.12544478 -0.15483318 -0.056606483 0.21993886 0.10091658 -0.11769862 0.089075
0.14357717 -0.08499267 0.14842398 0.020388426 0.17854246 0.1435445 -0.14294553 0.014716605
0.26255178 0.07060126 -0.19858387 0.07266479 0.01608975 -0.07258467 -0.13775085 -0.09133238
0.23179214 0.0058822636 0.007097596 -0.06579571 0.074309304 -0.054524176 -0.03495529 -0.1587149
-0.062993065 0.22375937 -0.07861884 0.021781713 -0.07307646 0.14867759 -0.08447959 -0.0728024
0.0077165854 0.21907562 -0.12633176 -0.13830899 0.12545627 -0.059596457 0.09833062 0.02070437
-0.08708315 0.023935642 0.063410625 -0.13698152 0.02572382 -0.16570579 0.044381425 0.1937156
-0.008373649 -0.017607609 0.024606647 -0.21564382 -0.08270824 0.10221809 0.15754917 0.03923326
-0.22646561 -0.12603413 0.04668369 -0.03152468 0.20579737 0.07791715 -0.16875495 0.06444379
0.07448726 0.21969463 0.11567392 -0.09346307 0.0046857144 -0.03479308 -0.11554433 -0.14780864
0.018824412 -0.005928004 -0.1468704 -0.014412247 -0.27870798 -0.14548922 0.15997253 0.03115782
-0.008916692 -0.27217683 -0.09055737 0.124311075 -0.0064504473 0.06549727 0.077208966 -0.11158986
0.08422182 -0.02050909 0.18501048 0.1441664 -0.043709382 0.059995007 -0.065374926 -0.05425588
-0.0014283167 -0.06814288 -0.059303485 -0.087417744 -0.15619001 -0.20687474 -0.03723061 0.1849024
0.108539246 0.0536807 -0.12149651 -0.28930384 0.13096756 0.18754365 0.15203325 0.023200529
-0.13648027 0.08243462 0.07478527 0.2092923 0.18654206 -0.038269185 0.06610769 0.061485726
0.09334982 0.191813 0.038529724 -0.0001932722 0.069873214 -0.009390067 0.16817102 0.17184912
0.013937276 -0.08420957 -0.038565025 -0.030301725 0.046205427 -0.09642643 -0.1549808 -0.11504621
-0.10713 -0.060051028 0.047414016 0.012774275 0.091682166 -0.07106303 0.022509303 0.047347993
0.13293044 -0.031448245 0.057106093 -0.03964427 -0.12353862 -0.083862334 0.035975475 0.04701549
0.13606034 0.06673502 0.0047174543 -0.10289803 -0.12629552 -0.033946536 -0.11921973 -0.11970488
-0.066963196 -0.19889726 0.051977437 0.022256207 -0.053477805 -0.1258428 -0.13839324 -0.03989533
0.08066006 -0.074998535 0.12705562 0.13691081 0.027920464 -0.027487224 -0.11111262 -0.028758664
0.17114082 0.2047082 0.059334405 0.06305516 -0.10654552 -0.07326026 0.19305077 -0.0994246
-0.044354495 -0.01490803 -0.043351963 0.0015474898 0.04434532 -0.09407417 -0.038409628 0.053006932
-0.085390516 -0.038426314 -0.03503937 0.08680899 -0.052683227 -0.06720339 -0.19655393 -0.046120506
0.14860284 -0.35746133 0.08758568 -0.12585826 0.11661294 0.112689935 -0.46227926 0.23600383
-0.17307708 0.11210347 -0.05727405 -0.3879379 0.32211515 -0.126156 0.06134386 0.0014984548
-0.20381007 0.072395355 -0.03328219 -0.060606826 0.16744088 -0.06736184 0.061823487 -0.01956404

bias f4 [32]
00000000: 20da c33d 768b 12bb 72a3 29be a4a1 463d
00000010: 346b 99be 4e6e a83e c231 4d3e 2468 013e
00000020: cc8d f23d 744f 4cbd 1094 8abd c34a 143d
00000030: e3a1 a8be 3113 4d3e 1520 c43c f222 b9bd
00000040: 7626 96be 3d65 5f3c 2720 40be 6a6b 893d
00000050: 3129 b0bd e765 e3be edd6 4bbe 9647 eabd
00000060: ab51 70be a677 85bd 8c19 9fbe a266 43be
00000070: f090 9dbd 8e23 d23e 417a 9fbd ce63 10be
0.095630884 -0.0022360957 -0.16566256 0.048493996 -0.29964602 0.32896656 0.20038512 0.12637383
0.11843452 -0.04988046 -0.06766522 0.03620411 -0.3293601 0.20026852 0.02394108 -0.090398684
-0.29326218 0.013634977 -0.18762265 0.06709941 -0.08601607 -0.44413683 -0.19906206 -0.11439435
-0.23468654 -0.06516962 -0.31074178 -0.1908212 -0.0769366 0.4104275 -0.0778699 -0.14100572

weight f4 [32, 32, 5, 5]
00000000: 9cd1 9eba bb8f 2a3d c70a 7bbc 77d5 62bd
00000010: cf94 1bbd 2428 f5bb 9466 cd3b cc0c 8b3d
00000020: 1df6 383c 30aa 86bd 10b3 03bb e8ed 013c
00000030: 5751 ba3b d40e 293d ca92 15bc 0e5a 003d
00000040: 1eee 7cbc 1c63 733c ea2c c83c 9fe1 2abc
00000050: 1ee6 30bd afc5 cf3c 572f 963c 67f4 963c
00000060: 7410 afba 3e19 3ebc 1786 ef3d 21b1 503d
00000070: 3fcb 9cbc 84fe 543d 3d1a 3bbc ae4f 063e
00000080: 764b 1e3e 4031 b6bc eddc b83c 755f 2abb
00000090: 6723 263d 8dc7 3f3e 8a79 263c 05a5 24bd
000000a0: 2a64 633b c059 b2bc 13e9 b03c dbb5 df3d
000000b0: 7d2e 753d 4f03 25bd 00e6 15bd d44f 1ebc
000000c0: 4bbe 993c 1411 483d c080 d4bc eb29 143d
000000d0: 34f1 413d 5c56 613d aba3 8b3c 0be5 013d
000000e0: cfd9 723c 5c77 b43d 54e8 af3d d349 013c
000000f0: 78d3 8a3c bc61 723c 8162 abbc 7ad5 913d
00000100: 1eb9 083d 0f32 343c 6cba 723d 76d1 28bd
00000110: 2f9f 443d ac2f 6e3d 6d2d 47bc 5c2e bcbc
00000120: edc7 b7bc 8d6e c3bc b9e3 ce3c 016b bfbc
00000130: 62b1 633d 0661 883c 3244 b3bb f3d3 49bd
00000140: d36b ebbc 0b14 333c d14c 483d 6545 0dbd
00000150: f870 7fbd ddf4 39bd 959e 91bc a9ac 053d
00000160: 63c0 c1bb c32c 37b9 639a 06bd a240 093d
00000170: 061a 7a3c 5bb0 a7bc e2ca 62bd e520 65bd
00000180: 5a61 d7bc 9e7a 6bbc 254e 263c 42e2 8fbd
00000190: 9d53 803d 0922 97bc 9157 64bb 3855 cf3c
000001a0: 2cf0 623d 1f7a f23c 88ad 093d 6175 073d
000001b0: 0718 69bd aec5 3e3b 79ca bb3c b375 123d
000001c0: ae2f d73d b509 60bd e46f a7bc 929c 063d
000001d0: 6382 2f3c db65 203d 479f 5d3d 2d55 99bb
000001e0: 7285 d4bb 7f75 babc 566d 9c3c aba2 553d
000001f0: 31f4 18bc 6a84 833a 5138 38bc 2fa0 d63d
00000200: c353 c2bc 2c50 6fbd e91e 0bbb 3661 fa3c
00000210: aa56 d33d 008d 073e a3c7 05bd 41ef 273d
00000220: 2b29 fa3c decf 263c b8af c83d 162d 353d
00000230: a0cd 06bc 3d00 143c 3fcd 053d 5a0a 0a3c
00000240: c3fa 643c 8905 60ba 9971 893c 34ea cdbc
00000250: 0b65 f7b8 1987 bc3c 933e b53c 8850 183d
00000260: abaa 18bc 06b7 0cbb 30a1 fb3c 7e27 86bc
00000270: 4b70 05bb 14d3 643c 58fb 913d 8346 72bc
00000280: daf0 b43b baf2 0fbc 04bb 6b3c 1fb2 233d
00000290: d977 353c 895c f9bc c142 be3c 50c8 0b3d
000002a0: 2d30 493d 8b27 c63c ee2d 13bd 9266 07bd
000002b0: f839 a538 5903 e13a ba3d 00bc 3714 0f3c
000002c0: dce6 9e3d 6019 bb3d 60c8 db3c c099 2e3d
000002d0: daa5 1bbc 5a90 093d 1878 0c3e 2c8b 933d
000002e0: 7312 bb3b 55ac 1f3d 7ebe 273b 2408 c03d
000002f0: 668f ed3d 47ff 18bc ee21 8d3b 52f8 f1bc
00000300: 4078 1d3c 387b 763d 90b8 4e3d c219 20bd
00000310: 51e2 eebc 0d86 23bd f2d0 83bc 8ac3 e2bb
00000320: 04aa 6b3c 7d16 27bd bf4c acbc 549c 07bb
00000330: 89bc f83c 5602 f73b dae4 1fbd 626a f4bc
00000340: 807c 6f3d f031 063d e961 dab9 6acc 2bbd
00000350: d891 5ebc b107 29bc c935 c73c 0f04 52bc
00000360: 0220 0bbd 87e3 2fbd d527 1abd cbcf 0c3d
00000370: 36e0 39bc 2ee3 33bd e60e 0dbd 9252 04bc
00000380: afa1 93bc 2768 24bd 86b2 853c e6a3 273d
00000390: 978a fd3c 1ba9 6bbd c4fa b3bc 93ce d23c
000003a0: 730f e93c e71f 1d3e 34ed 883c d0a0 d2bc
000003b0: b0b5 693c a0fd 17bd ef2d a03d 2b61 253d
000003c0: 4ac4 ffbc 039f dfbc 1285 b03a 2929 193b
000003d0: 13a0 753d 1d18 44bd 6ea9 c93b 8125 d53c
000003e0: 72f5 22bc 1d35 e23c 5127 e83c 031d f3bb
000003f0: 97f0 173c 815f eb3b aacb 2bbb d89f dc3c
-0.0012116912 0.04164098 -0.015322394 -0.055379357 -0.03798371 -0.007481592 0.006268332 0.0678955
0.011289147 -0.065754294 -0.0020095743 0.007930256 0.005685966 0.041273907 -0.0091292355 0.031335883
-0.015437631 0.0148551725 0.02443548 -0.010429769 -0.043188207 0.025362818 0.01833312 0.018427087
-0.0013356344 -0.011602698 0.116954975 0.050950173 -0.019139884 0.052000538 -0.01141983 0.13116333
0.15458474 -0.022240281 0.022566283 -0.0025996838 0.040561106 0.18728466 0.010160813 -0.040196437
0.0034697154 -0.021771312 0.021595513 0.10923358 0.059858788 -0.04028636 -0.0365963 -0.009662587
0.018767497 0.048844412 -0.025940299 0.03617279 0.04734917 0.055014 0.017045816 0.031712573
0.014822437 0.088118285 0.08589235 0.007891136 0.01694654 0.0147938095 -0.020920994 0.071207955
0.033379667 0.010998263 0.059259817 -0.041215383 0.04800337 0.058150932 -0.012156826 -0.022971325
-0.0224342 -0.023856426 0.025255071 -0.023366453 0.055589087 0.016647827 -0.005470776 -0.049274396
-0.028737938 0.010930072 0.048901383 -0.034490008 -0.062363595 -0.045399535 -0.017775813 0.032635365
-0.005912827 -0.00017468915 -0.03286208 0.033508904 0.0152649935 -0.020469835 -0.055369265 -0.055939574
-0.026291538 -0.014372496 0.010150467 -0.07025577 0.06265948 -0.018448846 -0.0034842233 0.02530919
0.055404827 0.029599248 0.033612758 0.033070926 -0.05690768 0.0029109525 0.022923695 0.035756778
0.10507141 -0.054696757 -0.020439096 0.03286416 0.010712239 0.039159637 0.054106977 -0.004679343
-0.0064856345 -0.022761105 0.019095104 0.052157085 -0.0093355635 0.0010033969 -0.011243896 0.10479771
-0.023721581 -0.058426067 -0.002122814 0.030563932 0.10319264 0.13237381 -0.03266109 0.040999655
0.030537209 0.010181395 0.09799141 0.04423245 -0.008227736 0.00903326 0.03266644 0.00842532
0.013975802 -0.00085457467 0.0167778 -0.02513609 -0.000117966985 0.023013638 0.022124564 0.037186176
-0.009318034 -0.0021471395 0.030716509 -0.016376253 -0.0020361121 0.013966341 0.07128018 -0.014787319
0.005521876 -0.008785898 0.01438785 0.03996479 0.011075937 -0.030439632 0.02322519 0.03412658
0.04911821 0.024188777 -0.035932474 -0.033056803 7.8786106e-05 0.0017167135 -0.007827217 0.008732847
0.07758877 0.09135699 0.026828945 0.042627096 -0.009499991 0.03358493 0.13717687 0.07204279
0.0057089864 0.038982708 0.002559572 0.09376553 0.11599617 -0.009338207 0.0043070232 -0.029537354
0.009611189 0.060176104 0.05046898 -0.039087065 -0.02916065 -0.039922763 -0.016090844 -0.0069202827
0.014383797 -0.04079293 -0.02103269 -0.0020692544 0.030363338 0.0075381203 -0.03903661 -0.029835884
0.05846834 0.032762468 -0.0004165315 -0.04194299 -0.013584577 -0.010316775 0.024317639 -0.01281835
-0.033966072 -0.042941596 -0.037635643 0.034377854 -0.01134496 -0.043917827 -0.034438036 -0.008076327
-0.018021433 -0.04013839 0.016320478 0.04092779 0.030949874 -0.05753432 -0.02197016 0.025733268
0.02844975 0.15344201 0.01671467 -0.025711447 0.014264509 -0.03710711 0.07821261 0.04037587
-0.031221528 -0.027297502 0.0013467392 0.002337048 0.05996711 -0.04787456 0.006154231 0.02601886
-0.009946214 0.027613217 0.02833906 -0.00741923 0.00927367 0.007183016 -0.0026213923 0.026931688

bias f4 [32]
00000000: df0b f0bd 7077 11bd 958f 7ebe 5e7f 8ebe
00000010: 3a06 e2bd 0f43 acbc fb7a e63d 86ed 1cbe
00000020: 27ba 30be 130b 99bd 3499 1ebe 94fd b0bd
00000030: 269b bebd 4a87 bdbd a921 f7bd fb07 09bc
00000040: 1c02 713c 7e6f 99bd a5ee cebd c7b3 49be
00000050: d39a bbbd 7d7a cebd a0a8 d33b 93dd b0bd
00000060: b743 26bd ee0a f8bd 1593 a6bd 05e9 5abd
00000070: 2736 913d c9b7 0abe 3abb a63c 09cc 993d
-0.11721014 -0.035514295 -0.2485946 -0.27831548 -0.11036344 -0.02102807 0.112539254 -0.15324983
-0.17258511 -0.07472815 -0.1548813 -0.08642116 -0.09306936 -0.0925432 -0.12066967 -0.008363719
0.014709976 -0.074919686 -0.101041116 -0.19697486 -0.0916039 -0.100819565 0.0064593107 -0.08636012
-0.04059192 -0.1211146 -0.081335224 -0.05344488 0.07090407 -0.13546671 0.020352948 0.0750962

weight f4 [64, 32, 5, 5]
00000000: 9fd8 fd3b 33d1 23bc 3ee3 543c cdd3 cebb
00000010: 35a2 e93c 8e5e 113d f786 c43b fce3 5dbd
00000020: f4e4 b03c a135 09bd b1a3 e53c f610 e03b
00000030: e0ad 8fbd abfa b93c 49ab 303c 5b14 37bc
00000040: c440 25bc 22d8 35bd 810e 7e3b a8c3 ffbc
00000050: d6bc 7abb 43a6 ee3c 20c8 0dbd ac78 4d3d
00000060: 645d b93c 3a73 5abd 3a0b d4bc 9e4d 453b
00000070: 82ab febc 5c16 493c 962a 66bd ec15 22bd
00000080: 19ce 25bd 43bb 0b3c 7a2e 89bc 48d8 0bbd
00000090: 3c4e 77bd 50b3 64bd 385e 6fbc c075 a5bc
000000a0: a2de e6bb 2d96 143d 905e 163d e1a4 fd3a
000000b0: 5227 29bc 8f42 4fbb d383 b73c 8c7b fc3b
000000c0: 09f9 17bd 7dd2 37bd 2576 3c3d ec9e 133d
000000d0: 28c3 cbbc 8bda d5bc 719a 14b9 58a3 4c3d
000000e0: d010 bb3a 91b6 19bd a8f7 96bd 9473 1b3c
000000f0: 5ef5 3c3d 248c d13c b75c 0cbd 80f9 273b
00000100: fd2a 903c bef6 003d 262d 9d3c 8305 943b
00000110: b9b9 a6bd ff71 ccbd 32ca 473d 479a 273d
00000120: ff11 85bc e03a 12bd 60ad a6bd c2d9 9a3b
00000130: 455c 82bc 333a e7bc bd96 0dbc 8e11 143c
00000140: 867f 333d ffd4 38bb 871a 70bb e8ad 6e3d
00000150: d88d 2c3d 638e d93c f679 123d b4c9 76bd
00000160: c565 5d3d fee7 7c3c d4e6 4e3d 09da a5bc
00000170: 53cc 03bd b727 453d 31f2 aa3c 807f 1fbb
00000180: f5a3 a8bc 319b 22bb 00c4 f93c 5f1b e23b
00000190: 8ed4 e83c 72ec acbc bbfa fcbc ddf0 f83c
000001a0: b911 e23b cec8 2f3d 5e0b 85bc dd9d e8bb
000001b0: ed16 b5ba 8b8e 96bc 6b6f 983c 0fc3 c03b
000001c0: 5cd5 dcbc dfec 20bb 1932 b13c 5251 cfbb
000001d0: cf47 a2bc 3b41 07bc 1370 babc 430f 56bd
000001e0: ab00 533c 189a 38bc 9b29 e3bc 0d34 94bc
000001f0: 1cb2 23bd 776a ffbb 97e1 0abd b562 17bd
00000200: d502 e23b d6f8 d6bc 5d1f ac3b 9d94 8fbc
00000210: 71df f3bc dc8f 6d3d 9dd0 663d 8296 55bb
00000220: 1e56 12bd 319b 7ebd cf2b a33c 4be3 c1bb
00000230: 46de 253c 3894 6dbc 406a 12bd 4c61 423c
00000240: 2e3e 13bd 049d 52bd 60e3 26bd 5e1c cf3c
00000250: fe6d 373d 106a e63c 3baa c4bb eafb d63c
00000260: a487 adbc 2421 18bc 38d6 9bbc 4548 32bc
00000270: 0b90 893c c48d 85bb c26b f6bc 1dd2 ea3c
00000280: f358 403d b832 733c b095 07bb dd04 8c3c
00000290: abe6 c2bc 5d1c 8f3d 0845 19bd 275d c6bc
000002a0: fd29 57bc 511c 94bd 1a99 9c3b dd44 10bc
000002b0: 8ebc 7abd 3bce 783c 9f01 3dbd b6ea 543d
000002c0: 449a 97bc 471d 03bd 3d53 66bb 9409 ad3c
000002d0: 37ac f93c 9075 403c b2c4 5cbd e588 00bc
000002e0: dac1 1fbd 1658 1f3d 5cd8 6c3d 9eda 733d
000002f0: 6e91 29bd a447 99bc 21b9 4c3c 2239 fb3c
00000300: e995 243c 1b5b 6fbd 8ae4 1fbd 188c 043d
00000310: df1e 063d 2ffa 8dbc aaaa 58bd 8feb b03b
00000320: b77f ae3c db99 91bc a4e7 e0bc bc6a 293c
00000330: 6c35 56bd 6823 7bbc 36b2 213c ebb4 103d
00000340: 25d6 09bd 30e8 89bc a811 823c 7cac 2d3d
00000350: 501d 443b 262c 2ebc 447b 453c d291 913b
00000360: afd5 10bd 9844 8cbb 04f0 8abc 036a b6bc
00000370: 7689 643c 9fc4 cf3c faa6 723b 6e6e b33a
00000380: 40c0 ebbb 138e 323b 5d04 ebbc c5dc 9dbc
00000390: b8b6 0239 e415 0abb 35ff 033d b313 663c
000003a0: 4cca c0bc b1bc 943c 98bd b83c cc5c 3dbc
000003b0: 51ed 143d fe5d 43bc ae04 183c 7cb0 043d
000003c0: ea3d 9d3c 7a6f f23c 9da9 30bd 9071 febb
000003d0: c468 183d 51d9 353c 842f cfbb 174a 113d
000003e0: cc61 563d 5fae 20bc 75a8 10bd 1221 723d
000003f0: 2bfc 0e3d 2351 fe3c 68db 3cbd 3a1d 4eb9
0.0077467705 -0.009998607 0.012993632 -0.0063118697 0.02851973 0.035490565 0.0059975344 -0.0541725
0.021593548 -0.03349841 0.028032156 0.0068379594 -0.07015586 0.022702536 0.010783025 -0.011174287
-0.010086242 -0.044395573 0.003876597 -0.031221226 -0.0038259528 0.029132014 -0.034614682 0.05016391
0.02262754 -0.053332545 -0.02588426 0.0030106078 -0.03108764 0.012273397 -0.056192957 -0.039571688
-0.040479753 0.008528533 -0.016745795 -0.03414181 -0.060377344 -0.05583507 -0.014609866 -0.02019775
-0.007045583 0.03627603 0.036711276 0.0019351506 -0.010324316 -0.0031625365 0.022401726 0.0077051576
-0.037102733 -0.04487847 0.04601111 0.03604023 -0.024873331 -0.026105186 -0.00014171914 0.049960464
0.0014271978 -0.037527625 -0.073714554 0.009488005 0.046132438 0.02557952 -0.034268107 0.0025630891
0.017598623 0.03148531 0.019186568 0.0045172586 -0.081408925 -0.099826805 0.048776813 0.040918615
-0.016243933 -0.03570068 -0.081385374 0.004725666 -0.015913138 -0.028225994 -0.008641896 0.0090373885
0.043822788 -0.0028203127 -0.0036636905 0.05827132 0.04212746 0.026557153 0.035760842 -0.060250953
0.054052133 0.015436171 0.050513104 -0.020245569 -0.03217728 0.04813358 0.020867439 -0.002433747
-0.020585993 -0.002481174 0.030488968 0.0069002355 0.028421666 -0.02110884 -0.030881276 0.03038829
0.0068990854 0.04291611 -0.016240772 -0.007098897 -0.0013816037 -0.018378517 0.018607816 0.005882628
-0.026957206 -0.0024555249 0.021630334 -0.006326833 -0.019809632 -0.008255298 -0.02275852 -0.05226065
0.012878577 -0.011267208 -0.0277298 -0.018091226 -0.03996478 -0.007794674 -0.033906545 -0.03695937
0.0068973103 -0.026241701 0.005252762 -0.017526919 -0.029769631 0.057998523 0.056351293 -0.003259093
-0.03572666 -0.06215972 0.01991835 -0.005916988 0.010123795 -0.01450067 -0.03574586 0.011864018
-0.03594797 -0.051419273 -0.040744185 0.025282081 0.04478263 0.028126746 -0.0060017384 0.026243169
-0.021182843 -0.009285245 -0.019023046 -0.010881488 0.016792318 -0.0040757377 -0.03008068 0.028664643
0.04695983 0.014843635 -0.0020688586 0.017092163 -0.023791632 0.06987832 -0.03741935 -0.02421434
-0.013132569 -0.072319634 0.0047789933 -0.008805481 -0.061214976 0.015185888 -0.046144124 0.05198165
-0.018506177 -0.032010343 -0.0035144829 0.021122731 0.030477626 0.011746779 -0.05389852 -0.007845138
-0.03900323 0.038902365 0.057823524 0.05953466 -0.04139846 -0.018710919 0.01249531 0.030666891
0.010045507 -0.058436494 -0.03903631 0.032360166 0.032744285 -0.01733121 -0.052897133 0.0053991745
0.021301134 -0.01777356 -0.027454205 0.010340389 -0.05229704 -0.015328266 0.009869149 0.035328787
-0.03365149 -0.016834348 0.01587756 0.042400822 0.0029924698 -0.010630643 0.012053315 0.004442432
-0.035360035 -0.004280638 -0.016960151 -0.022267347 0.013948789 0.02536231 0.0037025795 0.0013689527
-0.007194549 0.0027245327 -0.028688604 -0.01927031 0.00012465834 -0.0021070177 0.032225806 0.014042783
-0.023533963 0.018156381 0.022551343 -0.011557769 0.036359135 -0.011924265 0.0092784595 0.03239487
0.019194562 0.029594172 -0.043130506 -0.0077650025 0.037209287 0.011099176 -0.006322803 0.03547105
0.05233936 -0.009807198 -0.035316903 0.05911357 0.034908455 0.031044548 -0.04610768 -0.00019656579

bias f4 [64]
00000000: 4f10 35bd 5162 8bbd d2dd 9dbd bdff 51bd
00000010: 63d6 9cbd 8ecb e1bd 6a7e 0bbc 0bec 87bc
00000020: 2103 03be 2296 afbd 70a7 59bd a0ee 27bd
00000030: 7b01 8ebd 6d2f 25bd 7da2 05bd ed48 c3bd
00000040: 3acb 8dbd 79f3 bbbd 52bd bfbd 7454 90bd
00000050: 907e 90bd 09ce a3bc a9a8 b63c 2c65 70bc
00000060: b33c 16ba b23c 65bd aff7 c9bd 34c0 dbba
00000070: beb4 d5bd 0e26 00bd f857 93bd 6d9b 05be
00000080: 6e9e 1bbd 94cc 41bc 2fbb d5bb 3731 48bd
00000090: 2c66 49bc a4fd 24bd 3a44 8abd b0e8 a9bd
000000a0: f7ab ad3c 96bf b4bd 933a e3bd 324d 80bd
000000b0: dc3c a7bd aec4 16be 4e7e 0abd 3828 9abd
000000c0: a19d 37bd 2927 68bd 6cb8 c7bd 962e 4cbd
000000d0: 7e6a a8bd 340e 7cbd 60ed 7cbd a575 c0bc
000000e0: 6b51 d5bc a6fa 0bbd d629 37be 5fb6 e8bd
000000f0: 7e1d 7cbc a93f d9bc 8817 0abd ebc6 85bc
-0.044205006 -0.06805862 -0.077083245 -0.05126928 -0.076580785 -0.11025153 -0.008514026 -0.016592046
-0.12794162 -0.085735574 -0.053138196 -0.040999055 -0.06933876 -0.040328432 -0.032625664 -0.09535394
-0.06923528 -0.09177298 -0.09362282 -0.07047358 -0.0705539 -0.019995706 0.02229722 -0.014672559
-0.0005731091 -0.055966087 -0.09861695 -0.0016765655 -0.104348645 -0.03128629 -0.07194513 -0.13047571
-0.037992887 -0.01182856 -0.006522558 -0.04887506 -0.012292426 -0.040280953 -0.067512944 -0.08296335
0.021200163 -0.088256046 -0.110951565 -0.06264724 -0.08165905 -0.14723465 -0.03381186 -0.07527202
-0.04482806 -0.05667797 -0.097519726 -0.049849115 -0.08223437 -0.061536983 -0.061749816 -0.023493597
-0.0260398 -0.034174584 -0.17887053 -0.113629095 -0.015387891 -0.026519613 -0.033713847 -0.016330203

weight f4 [64, 1024]
00000000: 5d78 17bc a6bf 92bb bcec ebba a6e2 37bc
00000010: df20 8fbb 8254 cebc c34c 133a 7788 cfbc
00000020: b6ce bd3a e89a 26bc c22d d23b 8ccf 083d
00000030: 2647 06bd 77d2 9c3c 3977 293c 3693 dfbb
00000040: 2233 f2bb e67a 4b3c 29d6 da3c 9adb a93c
00000050: 52be 243d 6a12 ec3c ba88 a8bb 6e94 953c
00000060: d4f7 e93b bfc0 c6bc c9c9 c93b 3464 bd3b
00000070: 20ba 9cbb 3709 be3c 93fe 57bd ca51 3e3c
00000080: 6c35 96bc 0640 14bd 0303 fb3b 8cf8 4aba
00000090: bce8 5b3c c996 dabc 5c56 3abc 8e10 4f3c
000000a0: e215 7c3c af0b 8d3c 8b57 d8bc fc56 16bd
000000b0: c79f 87bc 2b84 bebc b755 31bb 0ab1 bb3b
000000c0: 259d 433d c39a 353c a88e 9fbc 95e4 92ba
000000d0: 40fe 2e3c 0111 cf3c 1059 0dbd 709a 8cbb
000000e0: d75d 13bd deac 913c e4db 85bc a9d1 ae3c
000000f0: 7aa8 7dbc 4766 843c d24e d5bc f81d 3dbc
00000100: 5aae b53c c09c eb3c 0905 c43c 07d5 233d
00000110: 632f 213c ab18 2cbb 1254 8fbc d259 683b
00000120: a8af 9fbc 0576 b03b 61b4 31bd a7ae 2cbd
00000130: 7cb2 b8bc 7aca 90bc da41 27bc 2097 ab3b
00000140: 93fc e13c 9b9e 563c c8df 0b3c 2ca5 033d
00000150: 8494 9e3c 6e38 2d3c 299c 2b3c 459d 683c
00000160: 7a74 2b3d 1955 f43c a5f5 1bbc 8eb7 3cbb
00000170: 3293 26bc 16a2 7d3c 7de7 89bc 1286 51bc
00000180: a73b 9a3c faf2 4fbc c8ab 013d 6e4a 88bc
00000190: 2942 65bc 1e79 2ebc 057d 9ebc 17fc debc
000001a0: 46cc 20bc c43e 063d 4154 85bc 5fb1 98bc
000001b0: 1596 823c 6af9 a2bc 715d 09bc 31b8 cebb
000001c0: 8c40 f7bc da87 0abd 9fdb 12bd 2ec4 843c
000001d0: 262a 25bd 2e49 103c 6161 54bc 6325 a0bc
000001e0: c411 29bc 736a 273d 2224 873c 0c51 003d
000001f0: 8b56 bcbc 398c 03bc f5b3 30bc b9ca c4bc
00000200: ff73 42bd 0005 9bbc 7266 1ebc d6ee 03bc
00000210: c384 f6bc be48 6fbc b8aa 11bd 5697 dbbc
00000220: 2d7f 3fbc a6f7 5b3c a16b e8bc 503e bf3b
00000230: ce6e 7bbc e2f5 e33c eb2d 35bc d908 423c
00000240: b470 65bb e8ab 233c ff6b 86bc 69fe 03bc
00000250: 94ab debc 3b0f 3ebd 4dca 30bd 5ec8 fbbc
00000260: 0689 c53b 0b86 483c de7d 3d3d fc61 d7bc
00000270: 32ee f23c a728 74bc c325 65bc d32e 99bc
00000280: b27e 70bc 5f3c 9a3c 74a4 1a3d 630f 35bc
00000290: a8f3 f13c dfcf 893c 14ed 683c a65c 7abc
000002a0: 24c5 b7bc 7ea3 bd3c fa4e 17bd 0e50 82bc
000002b0: 9a41 0eba f7a9 c03c 60fc cc3c 5fc4 b8bc
000002c0: a629 a33b 1764 32bc 1e82 443c 60fd 30bc
000002d0: a9ed 8a3d e535 723c e631 1a3b f22c ed3c
000002e0: e0cd 933c 21e1 1f3c 4223 493c 7383 a83c
000002f0: 393a 873c 4267 ab3b 36af 953b 0dc6 7c3c
00000300: 624f a33c 9a95 643c 6639 713c fe71 293c
00000310: b5b0 613c fb40 f4bc cf5f 6cbc a4f5 ecbc
00000320: 2315 f33c f9c9 e7bc 08d4 cc3c 4953 a4bc
00000330: 7ff8 ed3c 422d 85bc d176 333c 1cc4 14bc
00000340: bc17 2f3d 08e9 883c 599c c83c 53de 333d
00000350: e115 a13c 3850 883c ef8d 05bc 3042 153a
00000360: 68b5 af3c a36c a6bc 84f6 a03a 9079 d3bb
00000370: 9c62 20bd 6740 2f3c 760a 9abc 6df8 1bba
00000380: 32fc 90bc c6a1 cb3c 3597 b53c 0492 8c39
00000390: 0b21 92bc 0b97 e03c 0a06 d63c 9816 89bc
000003a0: 34ef 07ba b73c 3bbb 7b9b 333c cda6 b8bc
000003b0: d9ec ab3c 1f9a c13c 825f 6e3c 10da 11bd
000003c0: 599f edbb 4f80 abbc 9221 2fbd adf1 d3bc
000003d0: 94bf c3bc 6203 a33c 2638 c4bc f375 233b
000003e0: 5472 14bc 1a4b 033d ad22 c23c 323c 0dbc
000003f0: 2449 c43c 45a8 efbb e71b 533c 1a3b ae3c
-0.009245005 -0.0044784127 -0.001799963 -0.011223471 -0.004367932 -0.02518678 0.00056190434 -0.025333626
0.001448116 -0.010168768 0.006414146 0.033401057 -0.032782696 0.019143326 0.010343366 -0.006822969
-0.0073913494 0.012419438 0.026713448 0.020734597 0.040220566 0.028817374 -0.005143252 0.018259253
0.007140139 -0.02426183 0.006158088 0.0057797674 -0.00478293 0.023197753 -0.052733015 0.01161618
-0.01833602 -0.03619387 0.007660271 -0.0007742725 0.013422187 -0.026683228 -0.011373129 0.012638224
0.015386077 0.017217485 -0.026408931 -0.03670405 -0.01655568 -0.023256382 -0.0027059147 0.005727892
0.047757287 0.011084261 -0.019477203 -0.0011207039 0.010680735 0.025276663 -0.034508765 -0.0042908713
-0.035978165 0.017782625 -0.016340204 0.021340208 -0.0154820625 0.01616205 -0.026038561 -0.01154279
0.022177864 0.028761268 0.023928182 0.03999808 0.009837958 -0.002625982 -0.017496143 0.0035453928
-0.01949294 0.005385163 -0.043384913 -0.04215875 -0.022546045 -0.017674673 -0.010208571 0.0052365214
0.027586257 0.013099338 0.00853724 0.032139942 0.019357927 0.010572536 0.010474243 0.014197652
0.041859128 0.029825734 -0.009519015 -0.002879593 -0.01016693 0.015480539 -0.016834015 -0.0127883125
0.018827273 -0.0126922075 0.031657964 -0.016637053 -0.013992825 -0.010648994 -0.019346723 -0.027219815
-0.009814328 0.0327747 -0.016275527 -0.018639265 0.015940705 -0.01989432 -0.008384095 -0.0063085784
-0.030182146 -0.033820964 -0.03585398 0.016206827 -0.0403234 0.00880651 -0.01296267 -0.019549077
-0.010319177 0.040873002 0.016496722 0.031327292 -0.022990486 -0.008029037 -0.010785093 -0.024022447
-0.047473904 -0.018923283 -0.00966798 -0.008052548 -0.030092603 -0.014604745 -0.0355632 -0.026805561
-0.011688036 0.013425743 -0.028371634 0.0058362857 -0.015346242 0.027827207 -0.011058311 0.01184293
-0.0035009803 0.009989716 -0.016408918 -0.008056262 -0.027181424 -0.046401244 -0.04316168 -0.030735191
0.0060282974 0.01223899 0.046262614 -0.02629184 0.029654596 -0.01490227 -0.013986054 -0.018699085
-0.014678644 0.018827615 0.03775449 -0.011051032 0.02953513 0.016822753 0.01421668 -0.015280878
-0.022432871 0.023149248 -0.036940552 -0.015907314 -0.00054266455 0.023518546 0.025022686 -0.022554575
0.00497933 -0.010888121 0.011993913 -0.010802597 0.06783611 0.014783357 0.0023528277 0.028952096
0.018042505 0.009758265 0.0122764725 0.020570492 0.016507255 0.005230815 0.004568006 0.015428078
0.019935314 0.013951683 0.0147231575 0.010342119 0.01377504 -0.029816141 -0.014427139 -0.028925724
0.029673165 -0.02829455 0.025003448 -0.020059245 0.029049156 -0.016256932 0.010953621 -0.009079959
0.042747244 0.01671268 0.024488615 0.043913197 0.019663753 0.016639814 -0.008151515 0.00056937616
0.021448806 -0.020315474 0.0012280499 -0.0064537004 -0.03915654 0.010696507 -0.018803816 -0.0005949799
-0.017698381 0.024857413 0.022166828 0.0002681167 -0.017838022 0.027415773 0.026125927 -0.016734406
-0.00051854854 -0.0028570124 0.010962362 -0.022540474 0.020986961 0.023633061 0.014549138 -0.03560835
-0.0072516617 -0.020935206 -0.042756625 -0.025872076 -0.023895063 0.019899074 -0.023952555 0.002494213
-0.009060461 0.032054044 0.023698175 -0.008620309 0.023960657 -0.0073137605 0.01288507 0.021268416

bias f4 [64]
00000000: 8b72 0d3d a736 99bd 83a2 3cbc fda9 21bc
00000010: 10f4 6e3c b00e 76bd 0d81 5c3d 0c8f ccbc
00000020: abfa 9e3c f830 bf3c faf8 54bd b22e b23c
00000030: 35c7 473b 8db6 fa3a 593d 493d 9f8c e33c
00000040: 78c6 72bc e84a 97bd 7152 3cbc 5957 71bb
00000050: 52ba 1cbd ecba 60bd 2126 b43c 4542 1fbc
00000060: 0089 213c 24f3 73bc 2bc6 47bd 8b6e 803b
00000070: eca4 03bd a2e4 423d 62fa cb3c 1e1e 31bd
00000080: 3c19 b4bb b165 0dbd 517a 3ebc c147 8f3c
00000090: 0730 3c3b 97c4 9b3c 7b8a b83b a4f4 b83b
000000a0: 52ea 893d b5c4 8bbd 8f13 c2bb 6029 edbc
000000b0: c9e0 c6bb c896 79ba 6890 95b9 9b19 b0bc
000000c0: 6fab 56bd 4e93 793c 6daf c43b 0160 473d
000000d0: ccda 94bc 3e52 9abb 7300 70bd ac07 3fbd
000000e0: 31d8 063c 8f79 8ebc c75f 853c 4a91 b83c
000000f0: 2d42 c13c 40d3 15bd 3a43 e3bc 4b7b c5b8
0.034533065 -0.07481127 -0.011513355 -0.0098671885 0.014584556 -0.0600726 0.05383401 -0.024970554
0.019406637 0.02333878 -0.051995255 0.021750782 0.0030483727 0.0019127891 0.04913077 0.027777014
-0.014817826 -0.07387334 -0.011494265 -0.0036825745 -0.038263626 -0.054865763 0.021990838 -0.00972039
0.0098593235 -0.014889512 -0.048772972 0.0039194277 -0.032139704 0.047581322 0.024899665 -0.043241613
-0.0054961722 -0.03452081 -0.011625842 0.01749027 0.002871515 0.01901464 0.0056317425 0.005644398
0.06734146 -0.06824628 -0.0059227417 -0.028950393 -0.006069277 -0.00095210643 -0.00028527086 -0.021496585
-0.052409586 0.015232874 0.0060023577 0.04867554 -0.018170737 -0.004709511 -0.05859418 -0.046638176
0.008230255 -0.017391948 0.016281022 0.022530217 0.023591125 -0.036578417 -0.027742017 -9.416657e-05

weight f4 [10, 64]
00000000: ba2d b33d 0bc6 0d3e 9093 0b3e dd57 233d
00000010: 1a2b a1be 4d75 5f3e e106 423c 4627 5b3e
00000020: 22cf 9ebe 5860 723e b962 7d3e e9c2 09be
00000030: 3a4d 2a3d 7bb1 cf3d 43ab 89be 5730 1c3d
00000040: 338b 213e 7db1 393e 3e57 75bd 24f8 26bd
00000050: 266e 383d b182 3dbe 6b31 79be 6240 7cbe
00000060: edc2 2a3d 0e0c 293e 28d4 54bb 6088 563b
00000070: 0c44 6f3c 4a95 e23a 2446 773e b21e f53d
00000080: 2d2c 69bd c51d c23d 4d99 243c dcd0 16be
00000090: 70e5 89be c270 eabd 0c1a 14be a822 433e
000000a0: 1cd4 fe3c f473 703e 04a2 6e3e 84fc cebd
000000b0: fa0b 9c3e 47a4 f53d 1fbb 3ebd cc89 793e
000000c0: 9a02 71bd 999b 84be dea0 10be e967 76be
000000d0: 1220 3b3e a7e9 5e3e 89be de3d 9080 8a3e
000000e0: 9e66 873e 613d 8c3d 79c9 cc3d 7c74 3fbe
000000f0: c9e1 6ebe 09e1 34bd 09b0 a43d d943 543d
00000100: 890c b93c 6e99 de3e 91fe 9c3d b33d 483e
00000110: 6666 733e 9ea4 06bd 0405 52be 6df1 efbb
00000120: e960 973e d01e ddbd e425 623e a6a9 843d
00000130: 84e0 2e3e bd32 0d3e 9176 b5be 8b7e 2d3e
00000140: 732b b33e 2903 c23d 3475 263e 1af5 af3d
00000150: 4562 51be 3c69 143e b064 d43e a2a7 523e
00000160: e14d a9bc 97b2 07be f83a 1fbe 51d4 043e
00000170: 7b37 b93e 032e 6dbe beb3 bd3d 4058 8fbd
00000180: 5944 8dbd 3261 733e e6da 6e3e 11ba 04bd
00000190: c770 9d3e e006 263e e63a e8bd 21d7 d23c
000001a0: bfda f3be e68e 723e 97ab fdbd 63d8 1c3e
000001b0: 004e 56be aba3 0dbe dccb c33c f3d9 95bc
000001c0: 5b59 1bbe be69 353e ce2c ccbd 1a26 4cbe
000001d0: 7038 84be 7d29 533e 80b5 d4bd 968d 91be
000001e0: 7d47 0c3c 8a24 a53e e2ee 4ebe cfcf 993d
000001f0: 74d0 a3bc e878 20be 3be1 b43e 39ad 8a3d
00000200: 59e1 44be 716c b03d 953a 393c 8ddf 47be
00000210: 16a2 acbd 4485 983d 57f1 033e a5b0 c13c
00000220: bdc5 b3be 31c7 3cbe 158a 9f3e 828c 66be
00000230: a164 2ebe 834d 07be cd3a 913e a941 9cbe
00000240: 7389 193e d7cb 1bbe c126 a0be 5b41 e33d
00000250: 3897 953e a371 afbe 3424 4cbe d808 6abe
00000260: e464 e73d 0e28 0abe 438c eb3d 62c0 15be
00000270: 56ad 4cbe 98be 00be 7553 29be 398f 513e
00000280: 04de 873c 04ae 253e ec00 9abd aca8 b53d
00000290: cbba 5f3d 5b6c d43d aad4 0d3e 7cc5 6abd
000002a0: 3ccf f23d 5c83 b3bd cd70 00be 1fa9 a23d
000002b0: bbe1 f53d 5b7f 9f3d 2cf1 68be 7344 b1bd
000002c0: 15f4 4b3e 763d 3c3e 876c 8abd 95fb 0bbd
000002d0: 04c1 82bd 607a bf3e c76f 043d cf0e 19be
000002e0: ebc6 24bd 92d3 86be da7e bebd 9257 d33d
000002f0: adb6 d6bc caa0 9f3d 5110 83be b41e cdbd
00000300: 2d78 733d dd74 4ebe f588 10be 5c9e dcbc
00000310: 4bf6 9d3c f487 783c 5e4a 34be 17f1 353e
00000320: f844 ba3d c01e f9bd d738 0f3b e53c bdbd
00000330: eab1 67be 6eae 0c3e 6022 e1bd cc13 d5bc
00000340: 218e d5bd 23bb e53d 0c9e 76be 1a20 9a3e
00000350: fe94 ccbc 882f c4bd 000a 123e 55f2 5e3e
00000360: effc 87be 86fa e7bd a926 cdbd cbf1 923d
00000370: 8d76 5a3c 10d6 a5bc 66b6 e3bd 6225 093d
00000380: cbb9 e13d 246a e1bd cddb 38be 5bc3 163e
00000390: 8c5a 573c 2c27 c33d 76c8 9a3d 33cc a6bc
000003a0: 715f ab3e a868 6d3e 10e2 d63d e544 24be
000003b0: 3495 e0bd 12b8 423d 227e 7f3e 086b 40be
000003c0: 6413 a5bd 37ac 843d d8c4 813e b631 1cbd
000003d0: d111 973e 0bdb 1a3d fce6 823d 4de5 943d
000003e0: d205 1bbe 8230 40be e75f efbd 4134 433d
000003f0: 246b 373e 7db7 1dbe 4c3f 823d 7e93 0ebe
0.08748956 0.13845079 0.1363051 0.039878715 -0.31478196 0.2182209 0.01184246 0.214017
-0.31017405 0.23669565 0.24744691 -0.13453259 0.041577555 0.101412736 -0.26888475 0.038132038
0.15775757 0.18134113 -0.059897654 -0.04076399 0.04502692 -0.18506886 -0.24335258 -0.24633935
0.041689802 0.16508505 -0.0032475088 0.0032735094 0.014603626 0.0017286923 0.2414785 0.11968745
-0.056926895 0.09478334 0.010046315 -0.14728111 -0.2693286 -0.11447288 -0.14463061 0.19056189
0.031107001 0.23481733 0.23303992 -0.10106757 0.30477887 0.11994224 -0.04656517 0.24368972
-0.05884037 -0.25899962 -0.14123866 -0.24063076 0.18273953 0.21768819 0.108761854 0.2705121
0.26445478 0.068476446 0.09999365 -0.18696779 -0.23328318 -0.044159923 0.080413885 0.051822517
0.022588985 0.43476433 0.07665742 0.19554786 0.2376953 -0.032871835 -0.20509726 -0.0073224814
0.29566124 -0.10796893 0.22084767 0.0647767 0.17077833 0.13788886 -0.3544202 0.16942804
0.34994087 0.09473259 0.16255647 0.08591671 -0.20447643 0.14493269 0.41483068 0.2057176
-0.020667018 -0.1325172 -0.15549839 0.12971617 0.3617514 -0.23162083 0.09262799 -0.06999254
-0.06897802 0.23767546 0.2332569 -0.03240401 0.30750105 0.1621356 -0.11339359 0.025737347
-0.47627828 0.23687324 -0.12386244 0.1531692 -0.20928192 -0.13831966 0.023900919 -0.018292403
-0.15170805 0.17716119 -0.09969483 -0.1993641 -0.25824308 0.20621295 -0.10386181 -0.28428334
0.008561966 0.3225444 -0.20208314 0.075103395 -0.01999686 -0.15671122 0.35328087 0.06771321
-0.19226588 0.086144336 0.011305471 -0.19518872 -0.08429353 0.074472934 0.12885033 0.023643801
-0.351118 -0.1843536 0.31160036 -0.22514537 -0.17030574 -0.13213162 0.28365174 -0.30518845
0.14993839 -0.15214477 -0.31279567 0.1109645 0.29216933 -0.34266385 -0.19935685 -0.22854936
0.1129854 -0.13491842 0.11501362 -0.1462417 -0.19987997 -0.12572706 -0.16535743 0.20464791
0.016585357 0.16179663 -0.07519707 0.08870062 0.0546215 0.1037223 0.13850656 -0.057317242
0.11855933 -0.08765289 -0.1254303 0.079424135 0.12005945 0.07787963 -0.2274825 -0.08655634
0.19917329 0.1838282 -0.06758981 -0.034175474 -0.06384471 0.37398052 0.03233316 -0.14947055
-0.040228765 -0.2633329 -0.09301539 0.10319437 -0.026210153 0.0779434 -0.25598386 -0.10015622
0.05944078 -0.20161767 -0.14114745 -0.02693098 0.01928248 0.0151691325 -0.17606494 0.1776775
0.09095186 -0.12164068 0.0021853948 -0.0924013 -0.22626463 0.13738415 -0.10992885 -0.026010416
-0.104274996 0.11217334 -0.24083728 0.30102617 -0.024973389 -0.09579378 0.14261627 0.2177213
-0.2656016 -0.113270804 -0.100171395 0.071750246 0.013333929 -0.020243675 -0.11118774 0.033482917
0.11021765 -0.11006573 -0.18052597 0.1472296 0.013144147 0.09528956 0.07557766 -0.020361042
0.33471254 0.23184454 0.10492337 -0.16041906 -0.10965958 0.047538824 0.2495046 -0.18790829
-0.08060339 0.0647816 0.25345492 -0.038133346 0.2950578 0.037806552 0.06391713 0.07270298
-0.15138939 -0.18768504 -0.11688214 0.047657255 0.17911965 -0.15402026 0.06359729 -0.13923451

bias f4 [10]
00000000: fde3 b4bd ea39 2a3d 0397 383d ba97 d93c
00000010: 7e93 4c3e 9a3e f2bd 2295 b23d b5da 353d
00000020: 0f9c b8bd 6d52 d03d
-0.08832548 0.041559137 0.04506589 0.026561607 0.19978139 -0.118283466 0.08719851 0.04439803
-0.09014141 0.101719715
